checkpoint_critic.pth (torch_old, 549347 bytes, 9 tensors)

fcs1.weight f4 [400, 33]
00000000: dba2 c33d c4f1 09be 9988 38be 712c 76be
00000010: d45b ffbe 4dd2 bd3e ca17 d2bd 1435 5e3d
00000020: abb1 26be cca5 c6bd ffb8 d3bc ef47 803c
00000030: c134 b3bd ff41 183e ed56 113e 2c47 fcbd
00000040: 112c 98bc 84fd 83be bbcc 2cbf f4e1 c43e
00000050: ed6f ff3d bdf2 f43c 8266 913c c285 6e3d
00000060: 59ec 66bd 3094 193e 29d0 17be 727b ce3b
00000070: 8c52 743d f7ea 33bd 5bd3 1fbd 7036 8fbb
00000080: a254 bb3d e4fb 3bbe 88f3 a9be a524 04be
00000090: 3284 8abe 8c47 00bf b524 53be 13b3 2bbc
000000a0: ba76 a7bd 510e c4be b554 3a3e 679e 1f3c
000000b0: 658f ca3d 3119 99bc b258 323e 2737 c13c
000000c0: 2a63 a8bd 3f87 fcbd c49f d93d 902e 353d
000000d0: c0a0 533e db54 093c e0e7 15be a5d4 9ebd
000000e0: 51ed 9bbd fd67 cfbd 44fa 90bd 33fb df3d
000000f0: d79c b2bc 911d ba3d 7847 0a3c 2f8e 5fba
00000100: 109d 26bd 634c 10be cffe 0fbe 86ed 263e
00000110: 9cb7 8ebd 73c3 913e bef9 2dbe 7618 91bd
00000120: 8832 173d c2a2 503e d456 74be 0762 80bd
00000130: 8406 90be 06b0 bcbd 867c 64be 0196 523c
00000140: 8786 973d da63 85bd 75a4 aebd a05b 003f
00000150: 6097 0cbf 64ab 8b3d 6f28 19be 51a1 06be
00000160: 076a cabd 0e9b b63d 7b4b d4bb bb08 a6bc
00000170: d45d a33d bb9c f13b 197b 0e3e d8ac 1cbd
00000180: 5d56 403d 9e52 e73c 9c2d 08be ef88 8dbd
00000190: 9ec0 bbbe 1937 16be 21de 783e d7cb 1abd
000001a0: e2c8 0abc 9a1f 1a3c 7430 ed3a 0c04 13be
000001b0: 0500 18be 0383 adbd 8921 99be 7e14 d83d
000001c0: c64e fa3c 475a 4ebe d167 ffbc 0225 66bd
000001d0: b78a a93a 1ae8 083e 3199 35be ffa0 afbd
000001e0: 890b 8ebe fa0d 623e dc57 85bc ab50 eb3d
000001f0: 7208 97bc 46e6 2f3d 8b75 e63c c907 d9bd
00000200: e9e4 2a3d 11a5 10bd 9206 b83c 710c 85be
00000210: a10d 733d d208 b73d 507d c7be 9271 613d
00000220: d877 5f3c 8f63 78bd 3b78 f5bd 3a02 1ebd
00000230: 2626 86be 928e 143e cfa7 463d 540c 70bc
00000240: 1933 08be 1b0e 15bc 23ce 04bd f5ae 303d
00000250: 23b7 953e 5342 ad3e 404d 05be ccf6 f8be
00000260: 60c5 ddbc 6b9f cbbc c63f 8c3c 6d67 8cbe
00000270: 5834 adbd 8fb6 ecbd cef5 913d 4bd8 8d3c
00000280: 6cec 003e e7d0 3d3d b937 58bc b061 cbbc
00000290: f752 57be 0f2c a4bd 25e4 81bc 09f9 a4be
000002a0: 8c1b 15be 74cc 833d a1ff f3bc f154 b9bc
000002b0: b2ee c0bc 6cad a0bd 3ec3 803d 3b0f 5abc
000002c0: 2186 413c 382d c0bb 4cb8 183e f08c 9e38
000002d0: 1919 753e dbde 26be 21b8 b8bc da0a 9d3d
000002e0: 35ba 423d ea1e 353d 264f 69bd 0787 a43c
000002f0: 6a00 833d 5758 553c c83e bb3d a69c 96bd
00000300: c97f 213c b399 2cbe 5ad4 2abd fdd1 3bbc
00000310: 801c 94bb 4234 643f 0490 5c3d 1f03 723e
00000320: 73d0 37be 8257 5b3e b43e b33e 534a fdbb
00000330: c8ff 07be eb6b 153e a12b 2abe 8615 493b
00000340: 55e8 02be 4e4c e5bc 1565 8d3d 82f1 0cbb
00000350: 93c1 ba3d a734 e1bd fcc2 fdbc 1253 c23d
00000360: c691 abbe 4418 923d 240d 22be 6bff dcbd
00000370: ce8c 8abe db95 80bd 7fae 6a3c c2ac 36bd
00000380: b7b7 f23d ce89 bbbc 1c70 b6bd c88f 1a3c
00000390: c9f2 153d 46b8 ea3c 9a26 2abf 14da a73c
000003a0: f281 273e 8997 193d 5704 01be 0cae 40be
000003b0: 0938 e3bd f88b 17be ecfa 1a3b 5c14 673e
000003c0: 0000 443e d686 fcbc d765 edbd 10ca 003d
000003d0: 50ab 41bd eafe 2abd a2ac 9d3d bf74 ae3e
000003e0: b9f5 2ebe 454b 26be 2ee0 183d 3bc1 febc
000003f0: 0813 eebd 4cb0 cf3d 1542 f8bd 5ad6 963d
0.095525466 -0.13471133 -0.18020858 -0.2404039 -0.49874747 0.3707451 -0.10258444 0.054249838
-0.16278712 -0.09699592 -0.025845049 0.0156593 -0.087502964 0.14868926 0.14193316 -0.123182625
-0.0185757 -0.25779355 -0.67499894 0.3845364 0.1247252 0.029900903 0.017749075 0.05823303
-0.056377742 0.14997935 -0.148255 0.006301337 0.059649035 -0.04392525 -0.039019924 -0.004370503
0.09147002 -0.18357807 -0.33193612 -0.12904604 -0.27053982 -0.5010917 -0.20619471 -0.010479706
-0.08176942 -0.38292173 0.18196376 0.009742356 0.098906316 -0.01868877 0.17416647 0.023585869
-0.08222039 -0.12330484 0.10626176 0.04423386 0.2066679 0.0083820475 -0.14639235 -0.077554025
-0.07613624 -0.10127256 -0.070789844 0.10936584 -0.021803303 0.090876706 0.008439891 -0.0008527962
-0.04067713 -0.14091639 -0.14062046 0.16301546 -0.069686145 0.28469428 -0.169898 -0.07084744
0.036913425 0.20374587 -0.23861247 -0.06268697 -0.2812997 -0.09213261 -0.22313127 0.0128531465
0.07398706 -0.06513186 -0.085274614 0.5013981 -0.5491848 0.068197995 -0.1495683 -0.13147475
-0.09883504 0.08916293 -0.0064787245 -0.020267835 0.07976881 0.00737342 0.13914146 -0.038250774
0.046957362 0.028237637 -0.13298649 -0.06910884 -0.36670393 -0.14669456 0.24303485 -0.037792053
-0.008470746 0.009406948 0.0018096105 -0.14357013 -0.14843757 -0.08472254 -0.29908398 0.105507836
0.03055514 -0.20151626 -0.031177433 -0.056187637 0.0012935017 0.1336979 -0.17734219 -0.085756294
-0.27743176 0.22075644 -0.016277246 0.114899956 -0.018436644 0.042944215 0.02813222 -0.10597188
0.041722212 -0.03531367 0.02246407 -0.25986055 0.05933917 0.08937229 -0.38962793 0.05503995
0.013639413 -0.06064182 -0.11985823 -0.038576342 -0.2620098 0.14507511 0.04849988 -0.014651377
-0.13300742 -0.009097601 -0.03242315 0.043135602 0.29241285 0.33839664 -0.1301775 -0.4862579
-0.027071655 -0.02485629 0.017120253 -0.27422658 -0.084572494 -0.11558258 0.07126962 0.01731505
0.12590188 0.046341803 -0.013196879 -0.024826854 -0.21027742 -0.08016216 -0.015855858 -0.3222125
-0.1456129 0.06435481 -0.02978498 -0.022623511 -0.023551319 -0.078455776 0.062872395 -0.013309295
0.011811764 -0.0058647655 0.14914054 7.560279e-05 0.23935355 -0.1629595 -0.022548737 0.076680854
0.047540862 0.044218935 -0.056960247 0.020083917 0.06396563 0.01302155 0.09142834 -0.07354097
0.0098571265 -0.16855507 -0.04170642 -0.011463639 -0.004519999 0.8914224 0.05384828 0.23634003
-0.17950611 0.214201 0.35008776 -0.0077298074 -0.13281167 0.14591949 -0.16618206 0.0030682995
-0.1278394 -0.027990486 0.069040455 -0.0021506255 0.091189526 -0.10996371 -0.030976765 0.09488501
-0.33509654 0.071335346 -0.15825325 -0.107909046 -0.2706055 -0.06278583 0.01432383 -0.04459835
0.11851447 -0.022892859 -0.08908102 0.009433694 0.03660849 0.028652322 -0.6646515 0.02048973
0.16358164 0.03749803 -0.12599312 -0.18816394 -0.11094672 -0.14799488 0.0023648096 0.2256636
0.19140625 -0.030826014 -0.1159169 0.0314427 -0.047282517 -0.04174701 0.07698943 0.34073445
-0.17085923 -0.1623965 0.03732317 -0.031097999 -0.11624724 0.10141048 -0.12121979 0.07365103

fcs1.bias f4 [400]
00000000: 2217 1c3e f2b8 033e 4223 bf3d ae15 db3d
00000010: f462 b93d 615b 213e 60bb 033e 69ae c1bc
00000020: 8d8d 193e 99c0 82bd e899 153e d8bd ca3d
00000030: 067a 17bd 1116 2fbe 99c5 213e f0da 7c3c
00000040: f7de 8a3c caea 09be 90ea 6cbd 1a16 263e
00000050: 3922 0abe 4da5 283e fd7e 243e 208e 69bd
00000060: b1bd cebd 4527 5fbd f8a5 abbc 4cf2 5ebd
00000070: 6b9b 1dbd 1493 f7bd 4dd2 4abd 6556 f13d
00000080: 6f75 ed3d 3855 de3a 52f3 073e 420a 70bd
00000090: 935b 1ebd 23d4 0cbe c049 f53d 4363 95bd
000000a0: 9cbf 76bd 31a4 13be 68bb 113e ae26 10be
000000b0: dad9 bd3b a056 f6bd 8039 febc b49f 933d
000000c0: c9e1 da3d e975 12be 3a2e 0abe ce51 2a3d
000000d0: 2b98 4cbc e919 d1bd f6e0 12be 04c5 c23d
000000e0: de24 113d 38fe db3d 06e0 843b d8f2 483d
000000f0: dd37 c43c f022 74bd 9c0d 923c 512a 7bbc
00000100: 93d4 11be ec02 063e 29b1 1dbe 55ce eabd
00000110: f934 5cbc b3b9 143e bf59 17be 9745 a23c
00000120: cd91 a6bb a016 92bd 9b77 823d 4ef1 12be
00000130: 8006 073b a7d1 24be f362 0dbe c4b0 dcbd
00000140: 442c 27be 27de aa3d 788e 09be 6d2a 673c
00000150: 510d bfbd c8d0 27be 901c 063e b0fc 1c3e
00000160: 3fb3 d2bd 3cc8 0cbe 2a2e e83d 0313 1c3e
00000170: b367 da3d a57a a4bd 5fb3 01be 924f 963c
00000180: 3432 0a3e 4a83 2dbe af58 1c3d 7e15 06be
00000190: f30c cebd 0acd b63d e89b 223c d72a 253e
000001a0: d0d5 323d 271a 02bd ae58 0c3e c53d e53d
000001b0: 7676 0ebe c41c 04be bd61 0c3e 5c3a 293d
000001c0: db54 f23d d96a 0fbe d159 753d 237f b1bd
000001d0: 53c0 1cbe 0796 8f3d 7fe4 de3d a5fa 283e
000001e0: 6d46 263e 98a3 19be bda8 e13d 6dc3 133e
000001f0: 1923 1bbe 9aa4 1d3e db0e 1f3e c3fb 233e
00000200: 79e3 1fbe c1aa e43d a111 193d 7d13 413c
00000210: 26bc c23d 618a 90bd 6de8 18bd 283e 62bb
00000220: 5812 32be c240 14be 023d 1fbe 75f8 09be
00000230: 5918 8fbd 4429 e63d 9422 32be 2263 193e
00000240: a4bb 03bb d017 0fbe 878b da3d 433e fc3d
00000250: 49e6 13be 1c7a 1b3e e773 b0bd f45d 493d
00000260: 28f9 3c3d 58f4 16bc 2b15 16be 2cf7 e33d
00000270: 00d2 1abe e83b cbbd ed73 30bc fdf0 463d
00000280: 6fad 1b3e 9952 d6bb 862a 05bd 073c efbd
00000290: c8b4 233e a785 2abe 5a84 8dbd 0480 a7bd
000002a0: 6fb4 1dbe f744 893d c6b9 c93d 25ff 073e
000002b0: 3960 70bc 2116 31be 8c2d c83d bbe5 2abe
000002c0: a5da d0bd 6c4a 7f3d 173c 9d3d 4e76 343d
000002d0: e7a7 d9bd 8199 bbbd 7088 8b3c d75b a23d
000002e0: 8375 07bc c608 c1bd be64 843d dddf 693d
000002f0: acc6 74bd 656b 7cbb 4dfa c63c 25e4 adbd
00000300: 693f 2dbd 50b8 81bd 5817 3abc 3ee2 d5bd
00000310: 9a35 eabd 83bb e2bd 6576 053d 7367 8b3b
00000320: f1a3 5ebd 10c2 d2ba 65fd 333d 5f66 513d
00000330: a36d 403c a74b 38bd b3e1 cdbd c3a2 a4bd
00000340: 4f75 c0bc 3eaa 04be aaad b0bc b55c e8bd
00000350: 8044 27be 1602 953d 9f23 e5bc 4ba2 31bd
00000360: 005f a13d 1c67 e6bc bd99 1bbd 330d 303e
00000370: 8141 9c3d 1b26 11be 2751 023e cb55 babd
00000380: c06d 20bd e359 a63d dc1c 293e b44b 0fbe
00000390: 0de2 d8bd 653d 1bbe db3c 27be 94f7 23be
000003a0: fb5e 0abe 98f3 1d3d 6e1b 8a3d 306a 0c3e
000003b0: e9d1 e63d 6b17 12be d6d8 7a3b ea0d 23be
000003c0: 1252 1d3e 0280 02bd 9aac 813d 2eed e4bd
000003d0: 4f3d 153e 078f 03be bf75 6d3d ef0b 07bd
000003e0: af8b b1bc ff9f 1ebd 1172 d43d 7a76 2e3d
000003f0: 311d c03d 7efb 72bd 52ed c5bd aac6 ea3d
0.152432 0.1286352 0.09332897 0.106974944 0.09052077 0.15757515 0.12864447 -0.023642736
0.14995404 -0.06384391 0.14609492 0.09899491 -0.036981605 -0.17098261 0.15798034 0.015433058
0.016952021 -0.13468471 -0.057840884 0.16219369 -0.13489617 0.16469307 0.16064067 -0.057020307
-0.100947745 -0.05448081 -0.020953164 -0.05443029 -0.038478296 -0.120886 -0.049516965 0.117840566
0.11594664 0.0016962653 0.13276413 -0.058603533 -0.03866155 -0.13752799 0.11976957 -0.07294323
-0.060241327 -0.14418103 0.14231646 -0.14077255 0.005793792 -0.12028241 -0.031033278 0.07208195
0.10687596 -0.14302792 -0.13494197 0.04158192 -0.012487452 -0.1021002 -0.14343628 0.09510234
0.03543555 0.10741848 0.004055026 0.04905972 0.023952419 -0.05960363 0.017828755 -0.015329913
-0.14241247 0.13087052 -0.15399612 -0.11465136 -0.013440364 0.14523964 -0.14780329 0.019808574
-0.005083299 -0.071332216 0.06370469 -0.14349863 0.002060324 -0.16095601 -0.13807277 -0.10775903
-0.1632548 0.083431534 -0.13433254 0.014109236 -0.09328712 -0.16388237 0.13096833 0.15330768
-0.10288095 -0.13748258 0.1133693 0.15241627 0.1066431 -0.08031205 -0.12666081 0.018348489
0.13495713 -0.16944614 0.038170513 -0.13094136 -0.100610636 0.08925827 0.009924866 0.16129623
0.04366094 -0.031763222 0.13705704 0.11193422 -0.13912377 -0.12901598 0.13709159 0.04131542
0.11832591 -0.14005603 0.05990011 -0.086668275 -0.15307741 0.07011037 0.10883426 0.16501863
0.16237803 -0.15003812 0.110185124 0.14430018 -0.15150107 0.15394822 0.1553301 0.16014008
-0.15614118 0.11165381 0.037370328 0.0117844315 0.09508543 -0.07057644 -0.037331033 -0.0034521911
-0.1738981 -0.14477828 -0.15550616 -0.13473685 -0.06987066 0.112383395 -0.17396003 0.14979222
-0.0020100856 -0.13973927 0.10671144 0.12316563 -0.14443316 0.151833 -0.086158566 0.049161866
0.04613605 -0.0092135295 -0.14656512 0.11131129 -0.15119171 -0.099235356 -0.010769826 0.048569668
0.15202878 -0.006540608 -0.032511257 -0.11681371 0.15986931 -0.16652547 -0.0691001 -0.08178714
-0.15400861 0.06702607 0.098498866 0.13280924 -0.014671379 -0.17293598 0.097743124 -0.16689198
-0.10197953 0.062326834 0.07677477 0.044058137 -0.10627728 -0.09160138 0.017032832 0.07927673
-0.008267763 -0.094255015 0.064645275 0.05709826 -0.05975978 -0.003851616 0.024289275 -0.08490781
-0.0422968 -0.06333983 -0.011358105 -0.10443543 -0.11436005 -0.11070921 0.032583613 0.0042542755
-0.054355565 -0.0016079564 0.043942828 0.05112302 0.011744889 -0.044994023 -0.10052814 -0.08038857
-0.023493437 -0.12955567 -0.021567184 -0.113458075 -0.16334724 0.072757885 -0.027971087 -0.043367665
0.07879448 -0.028125338 -0.037988413 0.17192535 0.076296814 -0.14174692 0.1272627 -0.09098395
-0.039167166 0.08122613 0.16514915 -0.13993722 -0.10589991 -0.15160139 -0.16331808 -0.16012412
-0.13512795 0.038562387 0.06743513 0.13712382 0.11270506 -0.14266746 0.0038276217 -0.15923277
0.15363339 -0.03186036 0.06331749 -0.11178051 0.14574169 -0.1284753 0.05797362 -0.032970365
-0.021673052 -0.038726803 0.10373319 0.042593457 0.09380568 -0.059321873 -0.09664406 0.114636734

bn1.weight f4 [400]
00000000: f524 a23e 5a39 163f 7874 333f 8953 2b3e
00000010: 4560 c93e a4b3 313f 53d4 f03e fd95 e33e
00000020: 8be2 953e 8377 163f b225 873e 0511 1a3f
00000030: c172 543e 68f0 833e 62d7 ce3e 042d 2d3f
00000040: 8e96 e93e b23d f03e d038 e23e 54e3 a23e
00000050: 6f02 513e 3c5f 143f 111b 293f eed8 f23e
00000060: 1cd3 a03e 0f33 db3e d73f a93e 5595 823e
00000070: 351b 043f 21e9 dc3e bfac 183f 5bca 113f
00000080: 4e72 253f 68c3 9f3d fa18 c93e f474 873e
00000090: 055f 673e 5ead 0e3f 2535 6a3f 8314 9b3e
000000a0: 2c56 8b3e fc27 043f b0dc 393f 4af4 3b3f
000000b0: bf2b e93e c32b 7c3e 2761 013f 00ef 693e
000000c0: cf58 2e3f 886e 773e e6ec b13e efc8 e03e
000000d0: d413 0c3f 5c44 163f 302d f83e 965f 9c3e
000000e0: 60f7 743f c490 303f 17fe 2a3f c076 4e3e
000000f0: 2abb 8e3e 25bf d03e f494 163f c3fd 803e
00000100: 5d93 0c3f 1617 053f 0654 883e 4c1f c73e
00000110: ec04 943e d028 593f 8331 8a3e c87c 433f
00000120: 0d11 053f 50f3 013f b1d6 dc3e 8acd 2a3f
00000130: a963 223f 449b fb3e dd7f 023f 8626 4c3f
00000140: c355 363f 3db1 823f 04ff 8e3e 12c7 143f
00000150: 4ac0 1b3f b6d2 c53e 60df d43e 9925 b13e
00000160: 5e3b 263f bb41 393f 3803 083f 34ab 153f
00000170: e554 063f 22a1 623f 2b51 ef3e 704d 913e
00000180: 865a ce3e aca2 733f 7ad2 033f f144 193f
00000190: 8b5b d33e a5e4 513e 10a9 2e3f f4d4 4a3f
000001a0: 3bcb b83e ad2e 363f cb18 0b3f 99e2 2e3f
000001b0: 7971 163f 846a 303f d6c6 a43e af8c 983e
000001c0: 1dc0 983e c7af a53e 89ff 0b3f c8e3 7a3f
000001d0: e00c 0b3f b3bd d23e b78d 243f 734a db3e
000001e0: a157 413f 85bc 263f 3b5a 443f 0656 1b3f
000001f0: c825 033f 0199 213f b185 843e 4339 2e3f
00000200: 7fe6 503f fd3e 103f a787 8c3e 0871 f93e
00000210: 1368 823e 03db 153f 4ce4 4f3f cb64 8b3e
00000220: e04f a83e fa40 4d3f 6899 293f 6c0c ed3e
00000230: 522f ee3e a878 673f 3faa c93e 920b 6b3e
00000240: 5112 ba3e eb48 333f b009 4d3e b2f7 7e3e
00000250: 2a7b 613f acc2 d83e f273 243f ebf6 103f
00000260: b691 503f 4b99 093f 8b71 b73e b88b 2a3f
00000270: 67a7 743f 4862 1e3f 63df 143f 9c52 283f
00000280: 72a2 043f f321 b53e e8a1 983e 6974 053f
00000290: fc1e 663e 65a5 483f e496 053f 1dd3 233f
000002a0: 94e8 863f 60d5 ad3e ba8d ab3e 76b7 773e
000002b0: 01b0 943e aa6f 2a3f 1d81 6a3e 65b7 c23e
000002c0: 5189 483f e6f0 223f 81d3 993e 5fcd 793e
000002d0: ff73 143f 3708 083f 2c7d 3a3f e2fd 533f
000002e0: 553d a13f 6abd 28bb 4b29 493f b8c9 d13e
000002f0: 34d5 d33e 8466 373f 42f7 a63e 9de3 d53e
00000300: d768 353f 789f c23e 29fc de3e d34b a03e
00000310: a7c0 0d3f 9474 da3e 8945 533f 6b16 6e3f
00000320: a7c0 bf3e 3821 953e 8ee3 803f 0006 473f
00000330: 66b8 583f 6acc 0f3f 07b7 323f 04ec c53e
00000340: 2684 7c3e d87d d53e 5842 fc3e cef0 153f
00000350: 0f07 213f 2ade 1b3e b32d 033f 13c5 223f
00000360: b178 af3e e47b 023f e67d e63e e281 073f
00000370: e31a 153f bd1b 6f3e cf7b 183f bb89 8a3e
00000380: 756d 513f dab8 d93e d264 163f 1e2a 133f
00000390: 39b5 173f 9dcf 243f 24c5 5b3e 6768 df3e
000003a0: 10a1 5b3f 3170 9d3f 99e2 a63e 2ff8 bf3e
000003b0: 4182 153f 7297 d93e 8a9a 8a3e b14b f73e
000003c0: 93da ef3e c347 f03e 44f0 123f 6426 bd3e
000003d0: 81dc 523e 082a 173f be8f 463f 7274 593e
000003e0: adaa 363f 8929 4b3f e5b1 023f 64b5 0c3f
000003f0: 3ea4 183f b81b 0a3f f278 053f 8e2a 5b3f
0.3166882 0.5868126 0.7009959 0.16731085 0.3933126 0.69414735 0.4703699 0.4445037
0.292744 0.5877611 0.26395947 0.6018222 0.207469 0.25769353 0.403987 0.67646813
0.45622677 0.4692207 0.4418397 0.31814063 0.20411085 0.57957816 0.66056925 0.4743113
0.31411064 0.42812392 0.33056518 0.25504556 0.51604015 0.43146613 0.5963859 0.56949395
0.6462754 0.07800943 0.39276868 0.26456416 0.22594841 0.5573329 0.9148734 0.30289087
0.2721418 0.5162351 0.7260237 0.7341963 0.45541188 0.24626069 0.5053887 0.22845078
0.6810426 0.24163258 0.34751052 0.439033 0.54717755 0.5869806 0.48471975 0.30541676
0.95689964 0.68970895 0.6679396 0.20162487 0.2787717 0.40770832 0.58821034 0.25193605
0.5491236 0.5198835 0.26626605 0.38891065 0.28910005 0.848279 0.269909 0.76362276
0.5197914 0.5076189 0.43132547 0.6671988 0.6343332 0.49141896 0.50976354 0.7974628
0.7122461 1.0210339 0.27928936 0.5811626 0.60840285 0.38637322 0.41576672 0.34598997
0.6493434 0.7236592 0.5312991 0.5846436 0.5247329 0.8852712 0.46741614 0.28379393
0.4030344 0.9517009 0.51493037 0.5987082 0.4128078 0.20497377 0.6822672 0.7923119
0.36092553 0.7116497 0.54334706 0.6831451 0.58766896 0.6891253 0.3218295 0.29794833
0.2983407 0.3236067 0.5468679 0.98003817 0.5431652 0.41160354 0.6427874 0.42830238
0.75524336 0.6513141 0.7670018 0.60678136 0.51229525 0.6312409 0.25883248 0.68056124
0.8160171 0.5634611 0.27447245 0.48719049 0.25470027 0.5853731 0.8120773 0.27225336
0.3287344 0.8017727 0.66249704 0.4629854 0.46520478 0.9041848 0.393877 0.22953632
0.363421 0.7003314 0.20023227 0.24899176 0.8807856 0.42336023 0.6423942 0.56626767
0.8147234 0.5374953 0.35828814 0.66619444 0.95567936 0.61868715 0.5815336 0.6575105
0.5181037 0.35377464 0.29811025 0.5213075 0.22472757 0.7837737 0.52183366 0.6399401
1.0539727 0.33951855 0.33506566 0.24191079 0.2904053 0.66576636 0.22900815 0.38030544
0.7833453 0.6364883 0.30044177 0.24394749 0.57989496 0.53137535 0.7284725 0.8280927
1.2596842 -0.0025747665 0.78578633 0.40974212 0.413736 0.716408 0.32610518 0.41775218
0.708631 0.3801229 0.43551758 0.3130785 0.5537209 0.42667067 0.8252798 0.9300296
0.3745167 0.29126906 1.0069444 0.7774353 0.8465637 0.56171286 0.6981053 0.38656628
0.24659786 0.41697574 0.49269366 0.58570564 0.62901396 0.15221468 0.51241606 0.6358196
0.34271768 0.5097029 0.45017928 0.5293256 0.5824415 0.23350425 0.59563917 0.27058205
0.81807643 0.42523843 0.5874759 0.5748614 0.592609 0.6437929 0.21461922 0.4363434
0.85792637 1.2299863 0.32594755 0.37494037 0.58401877 0.42498356 0.2707103 0.48299935
0.46846446 0.4692975 0.57397866 0.36943352 0.20591928 0.5904851 0.77563083 0.21235827
0.7135418 0.7936025 0.51052696 0.5496428 0.59625614 0.53948545 0.5213767 0.8561181

bn1.bias f4 [400]
00000000: 2823 67be 7183 27be 27d8 c3be 343c fabd
00000010: f8d7 c7bd 1b33 e7be 6fbf 21be 26b5 27be
00000020: 066c 6fbe bfa0 a1be 43ba 67be 3061 4fbe
00000030: 6c13 32be 1ccf 59be bd60 7dbe 7a47 3abe
00000040: 16c3 f0bd 7ede 3cbe aa82 7cbe c46c 76be
00000050: 3f88 34bd 5cf8 1fbe 626a e9be 7826 a8be
00000060: 3bb3 5cbd 458b 4abe 0ae0 2cbe 324c 96be
00000070: f4ed 4abe cd8a 9abe 1023 57be 9553 93be
00000080: a2f2 b2bd 5376 49bd df75 9dbe 756f f7bd
00000090: 3560 60be 6a76 19be c43e 8dbd 38e6 5cbe
000000a0: 8c6a 97be acc7 60bd 4e25 6bbd 9243 96be
000000b0: a4b8 3ebe d325 4fbe e74a 5ebe 6a62 8dbd
000000c0: 9aa9 91be c260 bebd 6f8f 26be dae6 1cbe
000000d0: 2505 87be 2cab 6dbe eddb 7cbe b124 15be
000000e0: ad5e b5be 475d 5ebe c729 cabd c8b8 ddbd
000000f0: c845 49be fb3a 2ebe 61ae 8dbe cc3f 47be
00000100: 5d0e 83be 2f8e 2abe 6328 d3bd dc32 97be
00000110: 1160 44be 897a 9fbe fe8f 21be 813f 9dbe
00000120: e620 53be 65bb 51be d951 c8bd 7f7f 4ebd
00000130: 936c 89be 76ca 92be 1d3d eabd ba7c 6d3c
00000140: eaad 3abc 1119 a0be f790 80be 3e9b a9be
00000150: 8b0e 88be e4d7 49be 3b50 83be c74c 4fbe
00000160: e6c7 66be 58dc a6be dd5c a9be 606f 10be
00000170: 558e a1be 645f 0cbe bd9b 81be eccc 6cbe
00000180: 57d5 e1bc 4762 2bbe b235 afbe b52a 89be
00000190: 67cf 9cbd 2364 89be acc7 e7bd 84a8 24be
000001a0: c292 acbe 4028 8bbe dfa7 09bd 99ca 80be
000001b0: 1291 c4bd cc85 c6bd c5d4 06be 10e7 5bbe
000001c0: e415 62be ab84 bcbe 7144 00be cee2 5abe
000001d0: c58c 80be e907 29be 69c9 36be 987d 94be
000001e0: 5883 0abe 61f6 80be 62c2 52be 31d0 99bd
000001f0: 0c64 b9be f1b9 9cbe 07db 3abe f284 b3be
00000200: be83 7cbe 7f8c 79be 69b5 ebbd 7ea4 5fbe
00000210: 7e7d 85be e39d 8abe 32ea 3ebe c588 d6bd
00000220: 8260 c0bd 29e8 8dbe 96b9 81be 1509 c6bd
00000230: 9865 b8be 92b4 ccbd 97c6 86bd 0824 0dbe
00000240: 4b05 fcbd f0cc a8be 63f2 c23c 4851 63be
00000250: 4365 27be e7f8 55be 2ef7 83be 0f26 8dbe
00000260: 9de3 9bbe 830f 80be 7bf8 82be 75d0 2ebe
00000270: 6f02 74be 7e5c 7ebe a406 94be ddb5 9ebe
00000280: 18e4 2bbe 1eac 32bd d31e a7bd 0c65 dabd
00000290: 6e8a 17be 4ee5 41be 0140 77be 6a43 cebe
000002a0: 0f06 fabd 38b7 6abe 56f2 8cbe 2883 4fbe
000002b0: 57de 47be a608 debd ce6b 51be 9023 3abe
000002c0: 2f81 bebe 0183 4dbe ec9c 3fbe 93f8 3bbe
000002d0: dc34 89be d962 e3be b123 8fbe 5186 0cbe
000002e0: d230 85be 3f03 cfbc 9585 6fbe 5ac9 27be
000002f0: 374e 1fbd 5550 53be 26e5 4cbe 7e53 12be
00000300: 3760 a0be 8f09 5fbe 5316 87be 166a 11be
00000310: 0a07 9bbe ed44 5fbe 680b d3be 060e aebe
00000320: 03ed 75be c603 83be 9fd3 7b3d 2e40 cfbc
00000330: 74d9 88be 6997 febd d9d6 a7bd 650f 58be
00000340: 8e1e 8cbe 0742 7abe 31c9 9ebe 629e 43be
00000350: 4673 a0be 4f56 d1bd 2f67 6cbe de6c cebe
00000360: 4aba b7bd 8fbb 23be 667b 1dbe 60c2 0f3c
00000370: 3e9f 50be 99b2 aebd 6e4b a8be 0da1 97bd
00000380: 090e 1ebd 9276 82be c99c a3be 2b85 48be
00000390: 33bc 8fbe f272 a4be aad3 6cbe 0be3 7fbe
000003a0: b4cf 1cbe 6f0a 6bbe 520b c5bd 9678 79be
000003b0: a038 4dbe b90f 12be bec5 20be e0be a5bd
000003c0: 2cfc 69be 91ae 83be 8d25 69be 0e0b d9bd
000003d0: 4e01 a9bd de2e 96be be56 9cbe 9b42 11be
000003e0: 283a 32be f572 85be 6ec4 8bbe 6059 3abe
000003f0: a407 1abe 0fc8 cebe e971 37be 3e52 77be
-0.22572005 -0.16358735 -0.3825085 -0.12218514 -0.0975799 -0.45156178 -0.15795682 -0.16377696
-0.23381051 -0.31567952 -0.22629647 -0.20251918 -0.17390221 -0.21270412 -0.24743934 -0.18191329
-0.1175596 -0.18444249 -0.2465922 -0.24064928 -0.044075247 -0.15622085 -0.45588976 -0.3284185
-0.053881865 -0.1977969 -0.16882339 -0.29355007 -0.19817334 -0.30184022 -0.21009469 -0.28774706
-0.08737685 -0.04918511 -0.3075399 -0.120818056 -0.219117 -0.14986578 -0.06896737 -0.21572196
-0.29573476 -0.054877922 -0.057408623 -0.29348427 -0.18625122 -0.20229273 -0.2170826 -0.069035366
-0.28449708 -0.09295799 -0.16265653 -0.15322438 -0.26371112 -0.23209828 -0.2469327 -0.14564778
-0.35423794 -0.2171527 -0.0987125 -0.1082626 -0.19655526 -0.17014687 -0.27672103 -0.1945793
-0.25596896 -0.16655801 -0.103104375 -0.2953099 -0.19177271 -0.31148174 -0.15777585 -0.30712512
-0.20618019 -0.20481642 -0.09781236 -0.05041456 -0.26840648 -0.2867009 -0.11437438 0.014495069
-0.011394003 -0.31269124 -0.251106 -0.33126253 -0.26573595 -0.19711262 -0.25647148 -0.20244132
-0.22537193 -0.32589984 -0.33078662 -0.14104986 -0.31553903 -0.13708264 -0.2531413 -0.23125046
-0.027567549 -0.16736709 -0.34220654 -0.26790395 -0.07656746 -0.2683421 -0.11317381 -0.16079909
-0.33705717 -0.27179146 -0.03360736 -0.2515457 -0.095979825 -0.096934885 -0.13167103 -0.21474862
-0.22078663 -0.36819968 -0.12526108 -0.21375582 -0.251074 -0.16506924 -0.1785027 -0.2900207
-0.13526666 -0.25187972 -0.20581964 -0.075104125 -0.36209142 -0.30610612 -0.18247615 -0.35062367
-0.2465963 -0.24370001 -0.115092106 -0.21840093 -0.26072305 -0.27073583 -0.18644026 -0.104753055
-0.093934074 -0.27716187 -0.25336903 -0.09669701 -0.3601501 -0.099953786 -0.06580847 -0.13783276
-0.12305697 -0.32968855 0.02379722 -0.22198975 -0.16347222 -0.2089573 -0.2577452 -0.275681
-0.30447093 -0.25011835 -0.255802 -0.17071708 -0.23829053 -0.2483997 -0.28911316 -0.30998126
-0.1678623 -0.043621175 -0.08160176 -0.106638044 -0.147989 -0.18935129 -0.2414551 -0.40285808
-0.12208187 -0.22921455 -0.27528638 -0.20264876 -0.1951841 -0.10841493 -0.2045128 -0.18177629
-0.37207934 -0.20069505 -0.18712205 -0.18356542 -0.2679814 -0.44411352 -0.27956918 -0.13723113
-0.2601381 -0.025270103 -0.23390801 -0.16385403 -0.03889295 -0.20636113 -0.20009288 -0.14289662
-0.31323406 -0.2178099 -0.2638422 -0.14200625 -0.30278808 -0.21803637 -0.4121964 -0.33995074
-0.24016194 -0.25588816 0.061481114 -0.025299158 -0.26728404 -0.12431223 -0.08195276 -0.21099623
-0.2736706 -0.2443925 -0.31012872 -0.19103387 -0.31337947 -0.1022154 -0.23086236 -0.40317434
-0.08971079 -0.15989517 -0.15379104 0.00877437 -0.20373246 -0.085301585 -0.32870048 -0.07403765
-0.038587604 -0.25481087 -0.31955555 -0.1958205 -0.28073272 -0.32118946 -0.23127618 -0.24988954
-0.15313607 -0.22953199 -0.096213 -0.24362406 -0.20041132 -0.1426381 -0.15700433 -0.08093047
-0.22850102 -0.2571912 -0.2276823 -0.10597812 -0.08252202 -0.29332632 -0.3053493 -0.14185564
-0.17404997 -0.26064268 -0.272983 -0.18198156 -0.15041977 -0.40387008 -0.17914547 -0.24152467

bn1.running_mean f4 [400]
00000000: 7a7c 363e 0fc0 4a3f 6f1d 6fbe ac56 b63f
00000010: 4720 873d 030f b13b a476 7ebe 6076 dcbe
00000020: f849 033f 7094 4f3f b0b2 2a3f a676 8f3e
00000030: 8a2a abbe 31fd 5e3f abc6 693f 54f1 0fbe
00000040: 8cfd 383e 99f7 d4be 34c5 b0bf 94a4 0abf
00000050: 8dd0 103e 4944 873d f8ee e93d af37 983e
00000060: 482c 093f 5d1a ecbe db95 59bf 0a4f abbe
00000070: 39da 1e3e 2a96 25bf eae5 f93e 7024 013e
00000080: 3a95 ac3b 0acb e03e 1298 3ebf c996 89be
00000090: bbf2 833e 5f26 393f d8d2 7e3e de01 4cbf
000000a0: e247 43bf 63c4 f13d c696 543d cd64 a7be
000000b0: c01c f1be d789 ebbd aaf6 c0be 2fab e5bd
000000c0: c9e9 02be 6e1b 9b3d 3313 c5be dd90 fd3d
000000d0: 39cf 42bd 7c2f 82be 18ff 77be 7d4b 5a3d
000000e0: 3304 a43d 0feb 0dbf 77dd 273e 0110 503f
000000f0: e425 67bc 071a 2cbd 853b 0bbe f761 b9be
00000100: 1fc8 aabe b8d9 d6be d2c4 92bc 4da7 41bf
00000110: d65c 943e e836 8b3c 2b40 fabe 7b62 6c3d
00000120: 9115 c1bd 1e29 4dbf ffcf 843f 6df7 fa3e
00000130: abc0 363f 1232 af3e 6136 8e3e 8380 de3e
00000140: 639f 193d 8e0d 9bbd 6ac6 52bf 8b58 a9be
00000150: 838d c3be efdf 0f3c 1668 69bf 461e 12bf
00000160: b5f8 b03e d20a d5be bf89 863f cc25 6c3f
00000170: 8d1f 06bf 0588 f23d 7727 a63e 67d3 57bf
00000180: e235 9f3e ea71 9bbd 0a32 08be c24b 483f
00000190: 8a1d 283f 61a3 08bf 8f33 293f 9833 e03d
000001a0: 657c a9be 45d5 3f3c 0610 933d de22 d13e
000001b0: f387 2ebe 744d 5b3f c038 f5be b41a d0be
000001c0: f5a7 4cbe 378b acbe d6c0 8abf ddad f33e
000001d0: 16e2 7dbe 8c12 3f3f 85a6 513e 2fd5 c23d
000001e0: 0bb1 33be 3ad9 c7bd a7e7 fd3d bc14 3c3f
000001f0: ebca 183f 866a 00bf c339 0cbf 0db8 ffbe
00000200: 9ee4 f5bd 2a21 ef3e 9fd8 43bf 262b bdbe
00000210: ef16 b73e 7682 6fbe 57c1 1bbd 497e 09be
00000220: e2d7 b9be e83e f0be aeb8 e63e 73c1 e6bd
00000230: 8183 3dbe f4b4 943e 66ce 3c3f d236 20bd
00000240: f856 c83c 858a 48bf 0c61 a13e 2dcb b4be
00000250: d4ac d03d 1c46 3fbf 8bfb 893e 7c2e 77be
00000260: 887a b4bc 5930 8b3f 2b45 66bf 9fef a93e
00000270: 92d6 013f 7988 0bbf 173f 6d3e b52b 92bf
00000280: 1d54 503c 38ca 0f3e fcc5 283e ed4b 8bbe
00000290: 2c95 7e3e 14fc e6be 91a1 c93e 658c 693e
000002a0: 8c8b 803e e3a4 733d 4c68 01bf 6559 4bbf
000002b0: 2864 6dbe d81f 2c3f f238 df3e c276 da3e
000002c0: 79b4 0abf 0c73 513f 900c 7e3e d2fb 5dbf
000002d0: 51ec 5cbf e3ad c3bd 2287 753f e9ec 54be
000002e0: 0f46 94bd 96a1 09be 2644 923e 5d09 8f3f
000002f0: 3515 8f3c ee81 19bf 8fb6 89bd 60a5 fb3e
00000300: 15fb 8d3e bc26 18bf bd5c 8d3e d1e9 8c3e
00000310: 888a bfbe 937d a63e 0d62 13bf fa95 0abd
00000320: 16fc bfbe 4a3f 293e 17f2 253f d6d4 353f
00000330: c44f 163c 79e1 463e 0e0d 893e eb9e 8bbd
00000340: 9796 463e da6a d03e 7ca5 74bf 9b81 c73e
00000350: 97e6 b1be 9345 2a3e 513f b8bd 420e d9be
00000360: 486a 063f 9d1c 9e3c 6a32 86be 605b b23e
00000370: 33a0 53be 1a0f 61be 9804 bfbc 4158 833f
00000380: 91a8 e33e e444 bebb 326f a33e 568a 21bf
00000390: a6cc 0abe b904 0fbf 00ab 113e d30b 09bf
000003a0: ebde 793e 9fbb 503c 5cf6 a03f 3758 8c3d
000003b0: 74d2 a63f d3a4 633f 847d 403f c555 9939
000003c0: 0267 4f3f 12b5 fa3e d093 1e3f 9b8b 583e
000003d0: b4e6 313e 4984 7dbe 1d14 62bd 1210 b0be
000003e0: d4f6 a73e 76c6 bbbd 096d b73e d4e3 fa3d
000003f0: e3c8 bdbe 7784 92bf 54fc c13d 2502 1bbf
0.17820922 0.7919931 -0.23351072 1.42452 0.06597953 0.005403401 -0.24849945 -0.43059063
0.5128474 0.8108587 0.66678905 0.2802021 -0.33430892 0.8710509 0.9131877 -0.14056903
0.1806547 -0.41595152 -1.3810182 -0.54157376 0.14142056 0.06604821 0.11422533 0.29729983
0.5358319 -0.46113864 -0.84994286 -0.3345874 0.15512933 -0.6468226 0.48808223 0.12611556
0.0052668126 0.43904907 -0.7445079 -0.26872852 0.25771126 0.72324175 0.24885118 -0.7969035
-0.7628156 0.11805036 0.0519016 -0.32694092 -0.47092247 -0.115009 -0.3768819 -0.11214291
-0.12784494 0.07573591 -0.3849121 0.12381146 -0.047560904 -0.25426853 -0.24218404 0.053294647
0.080086134 -0.55436796 0.16393076 0.8127442 -0.014108155 -0.04201701 -0.13596924 -0.36207554
-0.33355805 -0.4196298 -0.017916117 -0.75645906 0.28977078 0.016993955 -0.4887708 0.057711106
-0.094279416 -0.80140865 1.0375975 0.49016896 0.7138774 0.34217888 0.27775863 0.43457422
0.03750552 -0.07570945 -0.82334006 -0.33075365 -0.38193902 0.008781417 -0.9117445 -0.57077444
0.34564748 -0.41609818 1.0510787 0.92245173 -0.5239189 0.1184235 0.32451984 -0.8430695
0.31095797 -0.07590087 -0.13300338 0.782406 0.65670073 -0.53374296 0.660943 0.10947341
-0.33102718 0.011708562 0.071807906 0.40846914 -0.17044048 0.8566506 -0.4789486 -0.40645373
-0.19985946 -0.33699962 -1.0840099 0.47593585 -0.24793276 0.74637675 0.20473678 0.09513318
-0.17548005 -0.097582296 0.123977 0.7346914 0.5968463 -0.5016254 -0.5477564 -0.49945107
-0.12006496 0.4670499 -0.7650241 -0.36946982 0.35759684 -0.2338961 -0.03802618 -0.1342708
-0.36297518 -0.46922994 0.45062774 -0.11267366 -0.18507196 0.29044306 0.7375244 -0.03911478
0.024455532 -0.78336364 0.31519353 -0.3531126 0.10189214 -0.74716353 0.26949725 -0.24138826
-0.022031084 1.087413 -0.8994929 0.3319063 0.50718033 -0.54505116 0.23168598 -1.1419588
0.012715367 0.14041984 0.16481775 -0.27206364 0.24861592 -0.45114195 0.39381078 0.22807463
0.25106466 0.05948342 -0.5054977 -0.7943328 -0.23182738 0.6723609 0.43598133 0.4266873
-0.5418163 0.8181617 0.2480948 -0.8671237 -0.8629809 -0.09554651 0.9590932 -0.20793499
-0.07239925 -0.13440546 0.28567618 1.1174732 0.017466167 -0.5996388 -0.067242734 0.4914961
0.27730623 -0.59434104 0.27609816 0.27522138 -0.37410378 0.3251768 -0.5757149 -0.033834435
-0.37497014 0.16528049 0.64822525 0.71027887 0.009174291 0.19421948 0.26767772 -0.068174206
0.19393383 0.4070652 -0.9556501 0.3896607 -0.3474624 0.16628103 -0.08996452 -0.4239369
0.5250592 0.019300753 -0.26210338 0.3483534 -0.2066658 -0.21978417 -0.02331762 1.0261308
0.44464543 -0.0058065522 0.31920773 -0.6310171 -0.1355463 -0.5586658 0.14225388 -0.5353367
0.24401443 0.012740045 1.2575183 0.06852763 1.3032975 0.88923377 0.7519152 0.00029246337
0.8101655 0.4896627 0.61944294 0.21147005 0.17373163 -0.24757494 -0.055194963 -0.3438726
0.32805502 -0.09168713 0.35825375 0.12250486 -0.37067327 -1.1446675 0.09471956 -0.6055015

bn1.running_var f4 [400]
00000000: 5a78 1440 c319 e53f 64a2 0940 72f6 6140
00000010: a2d8 4a40 8fbb ad3f 998f 4940 d0a7 df3f
00000020: ec01 a53f 35a7 1440 ab9d 9840 1633 1a40
00000030: 17ea 8a40 f84c 8640 94b3 1d40 29c9 8d3f
00000040: 09c5 6940 0d64 b13f 56c5 2740 246d 8240
00000050: 4006 6d40 1268 b63f 2747 5740 9710 5240
00000060: 0a91 6740 4394 f03f 8c67 3640 6da1 0040
00000070: b181 1340 643f 0240 b68f 2740 e5ae a040
00000080: d574 0040 a1fd 0e40 4778 2740 c269 6840
00000090: a78d bf3f 53da 6740 1436 d83f 7cdc 1c40
000000a0: 67de 3140 caf2 c63f b620 4740 4923 d43f
000000b0: b626 1a40 f8b8 b23f 9674 dd3f 25a5 1940
000000c0: 2ce5 933f 7b26 1340 3ea2 2640 ee22 1440
000000d0: 58b8 1740 c575 5740 f39d 3540 058f 4740
000000e0: 061d 9f3f 8705 4240 b886 0640 785b 4440
000000f0: a5ee 8840 ea05 1f40 67d5 3a40 8574 4340
00000100: 20f8 3f40 e637 1a40 c77b b83f f04f 2140
00000110: 6a43 de3f 54a0 1b40 55b6 a03f e264 3b40
00000120: f852 0e40 20a5 3940 b786 5740 972c c63f
00000130: a2d3 7240 3a82 0340 1ea3 2a40 8751 1941
00000140: 9797 cc3f dd86 6d3f a4be 9340 dfd0 9d3f
00000150: 7b1c 0a40 4691 f83f 8c97 0140 0a92 3d40
00000160: 0f3b 3040 ebac 953f 10c8 3740 667b 3840
00000170: 13c7 0740 0c8e 573f 3799 1340 c996 3f40
00000180: 0dd8 8c40 3925 2440 294c f33f d09a 4440
00000190: 5bc8 1f40 d84c 6140 b137 2f40 492f 1840
000001a0: 1490 d33f d081 4440 243e 3240 3e87 0340
000001b0: 6b63 8640 d536 1e40 df1e c03f 31cd 3f40
000001c0: 1d89 1f40 fa4f 1b40 2630 6e40 c967 da3f
000001d0: dfdd 0b40 999f f83f 56fe 2540 db53 1240
000001e0: 8d67 5540 6d70 eb3f d6aa 3d40 b37f 7540
000001f0: b793 0840 2d2c f53f 5768 6e40 c8b5 c43f
00000200: 606c 2740 faa3 cc3f 7f4a 2f40 0c24 693f
00000210: fa21 0d40 eff5 ed3f 3f96 fe3f adf9 9940
00000220: 6d1c b240 00af d43f f46c 5240 7cfc 353f
00000230: ef2e 1340 9055 df3f 5936 8340 b867 1440
00000240: fdd6 d93f bf05 3240 5a00 8840 5035 5340
00000250: 1f94 8d3f 0618 0640 762f 1440 27f5 1240
00000260: 26b8 973f 8cd6 4d40 bc02 1640 21e6 2040
00000270: 877e 2840 e32c ef3f 228e 0640 3afd 4740
00000280: b1ab 1840 1f9e b63f aa86 ee3f a1d0 0840
00000290: 3cce 7240 22a0 de3f 5843 c63f 2eac d53f
000002a0: 04d2 0540 dd29 3a40 9d4b c23f e374 8640
000002b0: 573c 0340 c016 4140 fad9 1240 ff70 be3f
000002c0: e9ff 0540 f40c 1e40 b7a2 d53f 6228 6740
000002d0: 6f0c 0640 740d 0b40 90d1 0340 f44b 9040
000002e0: 5850 623f 2fd2 3d3e b3ff 2740 f07f 9340
000002f0: 638e e93f 03bd 0f40 5b7a 0c40 c4f3 2240
00000300: 4be8 1440 869b 0840 24c2 b13f 4f15 b240
00000310: 3dae 4340 5c85 e03f 1a3e 0640 4b19 aa3f
00000320: e6cd cc3f 3ba8 3b40 538b e43f 5762 3340
00000330: a63f a53f 8193 df3f 5f85 ef3f bb0f 1a40
00000340: e24e 7040 f488 3840 8bec 6440 dfd5 2540
00000350: 5eac ba3f b45c a13f c59c bc3f 4dc2 ee3f
00000360: 2590 3f40 8147 0040 3ec0 e33f 3603 1b40
00000370: 887f 0b40 04ef 0840 977e 953f bf41 0a40
00000380: 7359 8a3f 8f80 4440 fbd2 2340 7997 0a40
00000390: 401f 2e40 4ae6 2740 494b ec3f 4ca4 0440
000003a0: ea60 c53f 1413 c23f dab9 5440 aa62 9140
000003b0: 4188 3340 c197 0240 0cd0 2c40 a0da 1a40
000003c0: b125 6040 1e6b 1840 9518 f83f ec0b 0040
000003d0: 11e7 0640 816d 3540 8adb dd3f 6cde 3c40
000003e0: 0165 1a40 45a0 0d40 f429 2540 ec50 2540
000003f0: a145 8040 7073 4440 95e2 0640 f83e 1540
2.3198457 1.7898487 2.1505365 3.5306668 3.1694722 1.3572863 3.1493895 1.7473087
1.2891212 2.3227055 4.7692466 2.409368 4.3410754 4.1968956 2.4640856 1.1077014
3.652651 1.3858658 2.6214194 4.075823 3.7035065 1.425051 3.3637178 3.2822626
3.6182275 1.8795246 2.85007 2.0098526 2.3047907 2.035119 2.6181464 5.0213494
2.0071309 2.2342303 2.6167161 3.631455 1.4965104 3.6227005 1.6891503 2.4509573
2.7791994 1.5542843 3.1113715 1.6573268 2.4086127 1.3962698 1.7301204 2.4007046
1.1554313 2.2992237 2.6036525 2.314632 2.3706264 3.366563 2.8377655 3.1181042
1.2430732 3.0315874 2.1019726 3.0680828 4.2791314 2.484736 2.919275 3.0539868
2.9995193 2.4096618 1.4412774 2.520504 1.7364323 2.4316607 1.2555643 2.9280324
2.223814 2.9007034 3.3675973 1.5482358 3.794167 2.0548234 2.666206 9.582404
1.5983762 0.9278391 4.6170216 1.2329367 2.1579883 1.9419334 2.0248747 2.9620385
2.7536047 1.1693395 2.8715858 2.8825316 2.1215255 0.8420112 2.3062265 2.9935782
4.4013734 2.564772 1.9007617 3.071949 2.4966037 3.5203152 2.7377741 2.377886
1.6528344 3.0704231 2.7850428 2.0551295 4.199636 2.4720967 1.5009421 2.996899
2.4927437 2.4267564 3.7216887 1.7062923 2.185417 1.9423705 2.5936484 2.2863681
3.3344452 1.8393685 2.963552 3.8359191 2.1340158 1.9154106 3.7251184 1.5367975
2.6159897 1.5987542 2.7389219 0.9107063 2.2051988 1.8590678 1.9889601 4.811728
5.56597 1.6615906 3.2879 0.71088386 2.2997396 1.7447987 4.100384 2.3188305
1.7018734 2.7816007 4.250043 3.300129 1.1060828 2.0952163 2.3153968 2.296213
1.1853073 3.21622 2.343917 2.514046 2.6327226 1.8685573 2.102425 3.1248307
2.3854792 1.4267005 1.8634846 2.1377337 3.7938375 1.7392619 1.5489302 1.669317
2.0909433 2.9088051 1.5179325 4.2017684 2.0505579 3.0170135 2.2945542 1.4878234
2.0937445 2.4695406 1.6690282 3.6118398 2.094509 2.172696 2.0596657 4.5092716
0.88403845 0.1853721 2.6249816 4.6093674 1.8246578 2.2459114 2.194968 2.5461283
2.326678 2.1344924 1.3887372 5.565101 3.0575097 1.7540698 2.0975404 1.3288969
1.6000335 2.932143 1.7855018 2.8028772 1.2910049 1.746689 1.8712577 2.40721
3.7548146 2.883359 3.5769374 2.5911787 1.4583852 1.2606416 1.4735342 1.8653046
2.993173 2.0043643 1.7793043 2.422071 2.179659 2.1395884 1.1679257 2.1602628
1.0808548 3.0703466 2.5597522 2.1654952 2.7206573 2.6234307 1.8460475 2.072528
1.5420201 1.5162072 3.3238435 4.543294 2.8051913 2.0405123 2.7001982 2.4195938
3.5023005 2.381538 1.9382502 2.0007277 2.1078532 2.8348086 1.7332623 2.9510756
2.4124148 2.212907 2.5806856 2.583064 4.0084996 3.0695457 2.1075795 2.3319683

fc2.weight f4 [300, 404]
00000000: 2dd5 4ebe 4442 cdbd 7f6f 653e 7147 9538
00000010: 9ca6 313e c2c3 6c3e c667 543d 1c9e 5bbe
00000020: cea3 2dbe dc4f 1dbe 5ef3 013d ccb2 97bd
00000030: 2c9d 9ebd 35e3 44be a6ae 0dbe 72d8 b1bd
00000040: 2039 fa3d 4cd8 44bd 8d2f 433d cf43 87be
00000050: 45ed f53b 20ce a93d 177c 4bbe d527 94bd
00000060: 6c6f e43a e4b6 3e3d 8f06 07bd 32e9 8abd
00000070: feb7 adbe 53c1 ebbd ca59 b03d d37d a7be
00000080: 7ffa b4bd 344f 193e e129 553e de3f 223e
00000090: 5aa8 ffbd 0bb6 d9bd bdcc 303d 6109 c13d
000000a0: b151 edbe f66b 2fbe a125 6c3c bc89 9a3c
000000b0: 467c 433c 6832 bdbd f089 b3be b1cd 1c3b
000000c0: 47eb dabd 62d3 abbc 55ad b6bb 1477 95be
000000d0: 87a1 ffbd 51a8 113e ca3e 76be 736e 303e
000000e0: 52f8 00be 412d e13d 2711 a33d 63c7 ff3d
000000f0: 6155 b6bd 73ff 213e 8086 c13d d7d9 0cbe
00000100: eab3 05bc f221 3bbd 60cd 173e 46e1 9d3b
00000110: 3abe c1bd 4eb1 743d f0e1 86be 4820 1cbd
00000120: 8d92 c03d 3e1a 8d3d fe95 df3c 7acb 4ebe
00000130: 5ad7 903d 558d b1bd be59 293d 5108 bd3d
00000140: 63fb 0ebe 7e8d be3d 3af0 d53d c6e0 e7be
00000150: e16d 353e 4371 2cbd 1e34 b7bc 488a 2c3d
00000160: de16 07be c115 153e ab21 2e3e 0b70 bebe
00000170: 485f c5be ad9e 9ebd ffd1 e73d b6c7 0abe
00000180: b28f 303d e925 573c 59ad 38be b58d a33d
00000190: f7ab b5bd 5199 e8be 2e25 eabc a241 0dbe
000001a0: a6a7 183e abf4 63bd 2516 a1bd 5048 60be
000001b0: 0856 10be ce1d 4bbe 68cb e73d 2cb4 f9bd
000001c0: e84c d7bd f073 013d 0452 c73d 3c98 fbbc
000001d0: 7e64 31be 332b 5ebe 79ee c73c b94a 59be
000001e0: 27fb 3b3d f449 70bc bbc2 ce3a 7207 083c
000001f0: f24e 59be 6be1 e7bc d7d3 70bb ff2f 94bb
00000200: 4b55 47bd ce83 9abd 4d42 9a3c 9e2c d4bb
00000210: c8f7 783c b7a8 50be 285a abbe 5da6 0e3d
00000220: 1f51 053e 1d0e bcbd 504b 05be 7f66 12bd
00000230: 5f03 17bc c251 843d 3aa4 dbbd 9c59 27bd
00000240: d38a dc3d e70d 943e abf9 70bd 9e8c 2fbd
00000250: cf65 813e ba3f 28bd 251b c23d 17e4 ef3d
00000260: 3719 d0bc ea98 f4bd be9c a8bd 879d 993e
00000270: 5878 57be a7f5 8c3d 9185 72bd 21d4 03bd
00000280: 3e55 383d 4fa2 debe 9dc8 5bbe 43d0 8f3d
00000290: a4c8 13bd 2466 2dbc 7869 8f3e a9d1 adbc
000002a0: a427 f3bd 65ac 593e fd00 603e c3ee 56be
000002b0: 4fc4 babd d33f c23b 388a 3ebe 80b5 723d
000002c0: 54fa c33d 94d5 a5bd d770 5dbb 19ca 1d3e
000002d0: be9f 183e d1db 013e 3d3f 74be ae95 183e
000002e0: 337d 43bd 17c2 0dbd 5b03 7c3e b6f8 3cbd
000002f0: 2a30 ffbd dcc5 a8bd 9f16 e03c c663 bfbd
00000300: c5e6 bdbe 5a69 e6bd 7cb9 64be da66 efbd
00000310: 0bc5 e93d f425 573e 8dd5 04bd c445 7a3d
00000320: 4871 22be aecf bfbd 5536 a4be 86b9 bfbd
00000330: 4364 f9be c312 f3bb 25be 13be 05ec b8bc
00000340: ef0a b0bb 727a 143e 1fc2 0abd 3b39 16be
00000350: b815 ffbe 9176 bdbd aeb0 febc 5d7c 3dbe
00000360: 25c0 6fbd e29c 26be abeb 153e 65e7 cfbd
00000370: ec3b 43bd 1173 e63c 9c95 403e 0236 fb3d
00000380: 951b e13d c32d 20be c8ff ec3d 6fa9 913d
00000390: d9cc 4ebe 6c11 073e 9a35 09bd bf79 c83d
000003a0: 63c5 c9bd 62b3 583c fe42 713a 03af d13c
000003b0: be8a 4abe 8365 9bbe 39ce a0be fdbf 3abe
000003c0: cc29 2f3e ea8f 48bd 4845 5ebd 0926 0b3e
000003d0: fa21 873d 5606 97bd 2b26 07bd d5e6 b1bd
000003e0: 85d5 5aba cf2a bc3b 0b56 3fbe cd4a 85be
000003f0: 2eee 07be 75fc c9bd 9b51 5e3d a45e 363e
-0.20198508 -0.10022405 0.22405814 7.118181e-05 0.17348713 0.2312155 0.05185678 -0.21447033
-0.16957018 -0.15362495 0.031726234 -0.0740715 -0.07744822 -0.19227298 -0.13836154 -0.08683862
0.12217927 -0.04805784 0.04765277 -0.2641892 0.0075050914 0.08291268 -0.19871555 -0.0723416
0.0017428226 0.046561137 -0.03296524 -0.0678276 -0.33929437 -0.11511483 0.08610876 -0.32713184
-0.08836841 0.1497162 0.20816757 0.15844676 -0.124832824 -0.10630425 0.043164004 0.09425617
-0.46351388 -0.17131028 0.014413268 0.018864505 0.011931485 -0.0923813 -0.35066175 0.0023926313
-0.10689407 -0.020974819 -0.005574862 -0.29192412 -0.12481981 0.14224364 -0.2404739 0.17229633
-0.12594727 0.109949596 0.07962256 0.12489202 -0.089030035 0.15820102 0.09449482 -0.13754974
-0.008160571 -0.04568667 0.14824438 0.0048181145 -0.09460111 0.059739403 -0.26344252 -0.038116723
0.09402952 0.06889771 0.027293202 -0.20194808 0.07072325 -0.08669535 0.04134535 0.09230102
-0.13963084 0.09304331 0.1044621 -0.45288676 0.17717697 -0.042100202 -0.022363719 0.042124063
-0.13192317 0.1455908 0.17005031 -0.37194857 -0.38549256 -0.07745109 0.113193505 -0.13552746
0.04310579 0.013131597 -0.18034877 0.07986013 -0.0887069 -0.4542947 -0.028582182 -0.13794568
0.14907703 -0.055653255 -0.07865552 -0.21902585 -0.14095318 -0.19835588 0.113180935 -0.12192568
-0.105127156 0.031604707 0.0973244 -0.03071224 -0.17323491 -0.21696167 0.024405705 -0.2121991
0.045893814 -0.014666069 0.0015774587 0.008302556 -0.21221521 -0.02830573 -0.003674736 -0.004522323
-0.048665326 -0.07544671 0.018830443 -0.0064750453 0.015195794 -0.2037686 -0.3346722 0.034826625
0.13019226 -0.091823794 -0.1301701 -0.03574228 -0.009217112 0.064609066 -0.10724683 -0.040856943
0.10768666 0.28916857 -0.058831852 -0.042858712 0.25272986 -0.0410764 0.09477834 0.117134266
-0.025402648 -0.119432285 -0.08233021 0.30002996 -0.21042001 0.06882792 -0.05920941 -0.032184724
0.04500317 -0.43483207 -0.21463247 0.07022145 -0.036080018 -0.010583434 0.28010154 -0.021218138
-0.11872795 0.2125717 0.21875377 -0.20989518 -0.09119474 0.0059280186 -0.18607414 0.059255123
0.09569231 -0.080973774 -0.0033789182 0.15409125 0.14904687 0.1268151 -0.23852248 0.14900848
-0.04772682 -0.034608927 0.24610655 -0.046135627 -0.124603584 -0.08240864 0.027354537 -0.09345202
-0.37090126 -0.11250563 -0.22336382 -0.11689539 0.11414536 0.21010572 -0.03243022 0.06110169
-0.15863526 -0.09365784 -0.32072702 -0.09361558 -0.48709306 -0.007418008 -0.14428003 -0.02257348
-0.005372397 0.14499834 -0.033876535 -0.14670269 -0.49821258 -0.0925113 -0.031090107 -0.18504472
-0.058532853 -0.16270784 0.14640681 -0.10151557 -0.047664568 0.02813104 0.18807071 0.122661605
0.10991589 -0.15642457 0.11572224 0.07112395 -0.2019533 0.1319024 -0.033498384 0.09788846
-0.09852102 0.013226362 0.0009203403 0.025596147 -0.19779488 -0.30350885 -0.31407335 -0.182373
0.17105788 -0.048965372 -0.05426529 0.13588728 0.065982774 -0.07374255 -0.032995384 -0.08686606
-0.0008347857 0.005742408 -0.18685167 -0.2603363 -0.13274452 -0.098626055 0.054277044 0.1780954

fc2.bias f4 [300]
00000000: 625b 023e b7e7 1d3e e9b6 e6bb 084b e3bc
00000010: a6bc 3dbd 31ce 17be e929 15bd 33c7 f9bb
00000020: cebb 57bd 414e 0ebe cc68 cbbd c136 63bd
00000030: 5b03 babd ffdf 83bd 1ca7 07be 28b7 e0bd
00000040: f710 03bd 80ad 8fbd dd42 73bd e079 f3bb
00000050: 2038 bdbd 58de 94bd 2f7b b4bd e72d 3e3b
00000060: ab6b 00bd 350d 01bd 0b51 183c aa3c e3bd
00000070: 6890 9abd 9ddf b0bd e862 65bd fa90 debc
00000080: 097d 123d 495c ba3d d311 713e 2f81 aebd
00000090: 1191 77bd cf60 4bbd fbee 02bd 3751 8fbd
000000a0: 265c 5b3e d73b 99bd 56c7 05bd 4373 f9bd
000000b0: 3ad1 75bd 3f91 2dbd f2a8 753e cab6 aebd
000000c0: fdb4 a5bd 1968 d0bd eba2 bbbd 798a 6dbc
000000d0: b9fc fe3d e063 9abd 2618 92bc 1f95 d8bd
000000e0: e1f1 293d ec66 b2bd b98c ee3d 1c53 abbd
000000f0: 5d53 babc 5662 debd 7fb1 28bd b4f1 e8bc
00000100: c8f5 203e 3db0 753d 71a3 dbbc ddff 99bd
00000110: 0d0e fbbc ac67 9c3c 50bd a83d 18e2 20bc
00000120: 9bed 44bd 3949 26be 7324 ea3c 9340 0cbe
00000130: 2c9b 1d3b 9c1b 78bd 146c 07be e6ab 17bd
00000140: b47e e2bc 3693 eebd 33ba 163d ab74 a93d
00000150: d084 1f3e 06c6 0ebd 02db 9cbc 99e4 58be
00000160: abbd a9bd 88f2 b83d fdf3 263e 62d0 b7bc
00000170: e425 a8bd 1ffb 76bd 2047 ae3d 93cd a5bc
00000180: e84d 713c c040 ecbc 97dd 29bc 60bd ce3c
00000190: 562d 88bd f584 e5bd 86f8 b03d 3035 cebc
000001a0: 565a e43a 5239 17bd c60c c83c c0d7 97bd
000001b0: 27aa 8539 9e3b 383d 759b 81bd c2c3 9f3d
000001c0: d52f 99bd 7a00 9cbd d28a 34be e169 44bd
000001d0: d2e1 1f3c 0238 48bd 92f6 823e 6235 1f3e
000001e0: 6d91 f43d 8727 3a3d 347e 15bd 357b d03b
000001f0: 5333 c0bc e044 ba3c efa0 823e a750 0e3c
00000200: 6444 0fbe 4eda e7bb 93c3 1e3e c3ef b8bd
00000210: ba92 17bc ab9f c9bc fb5a f4bd b019 7bbd
00000220: f511 80bd 0255 13bd cec4 a0bd 48ac eebc
00000230: a148 a8bc 53bd 743d 5448 be3b 345e 9fbd
00000240: 4a32 2c3e 23ec 4ebc 5f2a 25bd 219e 26bd
00000250: c07c 54bd 71b9 4c3d 6b76 f3bb 669c 84bd
00000260: d376 c4bd fe26 8bbd 2bf6 f23d 35db 0fbd
00000270: 8bbf 9b3e f7be 84bd 5049 50bd 4b3f b1bd
00000280: 491e 26be 6130 bcbd b12d 15be d934 063d
00000290: 8bce f53c e3a9 233d cfbc e33b 158f f63a
000002a0: 7734 25be b325 74bc 33ca c53d f181 6dbd
000002b0: 0fed 0fbd 3e0b 053d e0f1 453e b0cc 4e3e
000002c0: f9d8 323e a43f 163e d204 7ebd 0392 b9bc
000002d0: 383e 7b3d 3b56 043e c31c 65bd 4553 40bc
000002e0: a338 aebd 4a72 c3bd 064e 813e 80eb 76bd
000002f0: 5471 333e b546 80bd 8fa6 00be 9b0a 15be
00000300: 036a fcba ffce 55bd d998 8ebd ac3a 723d
00000310: 4cc1 a23c c0fb 7dbd 3be2 9fbd a80c 0bbd
00000320: 2eb6 853e 7146 80bc 4e31 163e fe6b a1bb
00000330: 7dc4 c33e 93be f3bd 8bbc d7bd 9c8d 93bd
00000340: 37ed 93bc 469d 6d3d 7009 133c 273f fabc
00000350: c8d2 b5bd ab69 5fbd d4cc 6ebd 7409 f1bb
00000360: 0775 fabd 580c 1e3e 9282 0d3e 5c8f 153d
00000370: 6f40 483d 3e68 c83c 5ddc 0f3e 8034 bbbd
00000380: 4c52 1abe 07e8 7abd 83f0 dbbd ffaa 173e
00000390: 81e6 4cbd 0861 563d 4df5 bc3d e5e6 d23d
000003a0: 5e00 543c 1ebc 10bc ede9 33bd 6bb6 a7bd
000003b0: 9c6f fa3c 6a43 b2bd 6949 173d f572 cebd
000003c0: 8d6f 07be 1ffd 41bd 8de3 e7bd cfb1 38bd
000003d0: 5537 e9bb e52e 113c 9397 0bbe b18b b03d
000003e0: de7b 11bd 9bf2 093e 0ba7 40bd b29d 7ebd
000003f0: 56f7 af3e 689e 183d f68e 2b3d 20d9 99bd
0.12730172 0.15420423 -0.0070408476 -0.027745739 -0.046322487 -0.1482475 -0.03641692 -0.0076226234
-0.05266934 -0.13897039 -0.09932098 -0.05547214 -0.09082671 -0.06439208 -0.13247341 -0.10972434
-0.0319986 -0.070155144 -0.059389938 -0.0074303 -0.092392206 -0.07268971 -0.08812558 0.002901906
-0.03135268 -0.031506736 0.009296666 -0.11095555 -0.075470746 -0.08636401 -0.056002527 -0.02716874
0.035763774 0.09099633 0.23541956 -0.085207336 -0.06044108 -0.04965287 -0.03196619 -0.069979124
0.2142187 -0.07482117 -0.032660805 -0.121801876 -0.060013987 -0.042374846 0.23990229 -0.08530958
-0.080911614 -0.10176105 -0.091619335 -0.0144983465 0.12450547 -0.07538581 -0.01783378 -0.105753176
0.04149044 -0.08711037 0.116479345 -0.08365461 -0.022744829 -0.108586 -0.0411849 -0.028435566
0.15718758 0.059982527 -0.026811333 -0.07519505 -0.030646348 0.019092403 0.082392335 -0.00981953
-0.04807816 -0.1623887 0.028581833 -0.13696508 0.0024048788 -0.060573205 -0.13224822 -0.03702917
-0.027648307 -0.11649172 0.036798667 0.08274206 0.15578008 -0.03485682 -0.0191474 -0.21180953
-0.082881294 0.09030634 0.16304012 -0.022438232 -0.08210352 -0.06029808 0.0850966 -0.020239627
0.014728047 -0.028839469 -0.010367773 0.025236785 -0.06649272 -0.11207 0.08641152 -0.025171846
0.0017421942 -0.0369199 0.024420153 -0.07414198 0.0002549451 0.04497873 -0.06328479 0.0780101
-0.07479826 -0.076172784 -0.17631081 -0.047952536 0.00975843 -0.04888154 0.25578743 0.15547708
0.119418 0.045447852 -0.03649731 0.0063623437 -0.023461973 0.02273792 0.25513408 0.008686221
-0.13990933 -0.0070755845 0.15504293 -0.09030106 -0.009251291 -0.024612268 -0.11931416 -0.061303794
-0.06253425 -0.03596974 -0.078500375 -0.029134884 -0.020542445 0.059750866 0.005806962 -0.0778164
0.16816059 -0.012629542 -0.04032361 -0.040678147 -0.051876783 0.04998154 -0.007429888 -0.06475143
-0.095929764 -0.067945465 0.11863359 -0.03512116 0.30419573 -0.06481736 -0.050851166 -0.0865465
-0.1622249 -0.09188915 -0.14568211 0.032765243 0.030005714 0.03995694 0.006949998 0.0018810952
-0.16133295 -0.014901566 0.09657707 -0.05798525 -0.035138186 0.032481425 0.19330549 0.2019527
0.17465581 0.14672714 -0.062016316 -0.022652632 0.061338633 0.1292352 -0.055935632 -0.011738603
-0.08506896 -0.09543283 0.2525484 -0.060283184 0.175237 -0.06263486 -0.12563537 -0.14554827
-0.0019257668 -0.05219936 -0.06962747 0.059137985 0.019867562 -0.062007666 -0.07806822 -0.033947617
0.26115555 -0.01565859 0.14667246 -0.0049262038 0.38235846 -0.119015835 -0.105340086 -0.07204744
-0.018057449 0.058011316 0.008974418 -0.030547692 -0.08878094 -0.054544132 -0.058300808 -0.007355863
-0.122293524 0.15434396 0.1381934 0.03651367 0.048889574 0.024463769 0.14048906 -0.09140873
-0.15070456 -0.061256435 -0.10739233 0.14811324 -0.050024513 0.05233863 0.09226475 0.10297946
0.012939541 -0.008833913 -0.04392426 -0.0818909 0.030570798 -0.087042645 0.036935244 -0.1008052
-0.13226147 -0.047360536 -0.11322699 -0.045091446 -0.007117192 0.008861278 -0.1363204 0.08620394
-0.03551852 0.13471453 -0.047034305 -0.06216211 0.3436839 0.037260443 0.041884385 -0.075121164
