checkpoint_actor.pth (torch_old, 548156 bytes, 10 tensors)

fc1.weight f4 [400, 33]
0.09927727 0.11562443 0.6666284 0.13473032 -0.13518827 0.52425164 -0.047289845 -0.2780678
0.04663539 0.120542794 0.13129984 -0.11569675 0.15924014 0.13929704 -0.13026893 -0.26553556
0.2612725 -0.12310318 0.098635964 -0.13173728 0.0071869567 -0.12577656 0.21664101 0.2454033
-0.11111955 -0.07367366 0.0834859 0.0010556473 -0.114874296 -0.014500521 -0.006864011 -0.02313121
0.358405 -0.19223899 0.232309 0.27280438 -0.37271562 0.059999052 0.12569617 0.3142449
-0.038622215 -0.65029275 0.14085941 0.087729886 0.27502567 -0.002230073 0.21228665 0.23466015
0.11652972 -0.15039273 -0.12981513 0.2024226 -0.1094841 0.35979143 -0.042991497 -0.027022725
-0.058270723 -0.030814828 -0.032044675 0.0382273 0.04154183 -0.28352928 -0.010610469 0.001040821
0.03771914 0.42546546 0.09684099 -0.33860716 -0.032847434 0.23903626 -0.32309976 -0.1912906
-0.30239168 0.09106321 0.07489754 0.17570774 -0.054741945 0.0848615 -0.014226883 0.109965846
0.14363226 0.34311077 -0.09315549 0.010161945 -0.1901547 0.052178547 0.2247094 -0.006157074
0.0011050408 -0.037520174 -0.05503669 0.20507206 -0.14572683 0.027905997 -0.3576632 0.03928748
0.04991061 0.02015156 -0.63022685 0.009932099 0.10229468 -0.02775427 0.13752012 -0.3175412
0.6131897 0.22811565 -0.24050137 -0.4039271 0.018226348 0.037153028 -0.07648547 -0.00030901036
0.16790229 0.32915044 0.0060044476 -0.48960814 -0.34375274 0.57041174 -0.15210846 0.16445667
-0.21420734 0.093530305 -0.19592986 0.091253765 -0.09680669 -0.17666633 -0.017021261 -0.16804181
-0.007437419 0.030563999 -0.03246241 -0.4480954 -0.10086582 -0.05505925 0.4405123 0.1959605
-0.87247247 0.5971533 0.27078766 -0.045329314 -0.13327385 -0.036062278 -0.028576544 0.17877598
0.21026018 0.040402167 -0.15906328 -0.34996974 0.14860325 0.020621167 0.033801045 0.22619738
0.052996658 0.17792119 0.15518965 0.056837086 0.122925945 0.07207033 -0.19425173 -0.0022746427
-0.065330185 -0.0015936121 -0.04274263 -0.00972157 -0.34737873 0.19154719 0.3450508 0.03698773
0.052158218 -0.07999121 -0.07907474 -0.37148634 0.12392853 0.032331455 0.15591995 0.15181485
-0.1454905 0.01810452 -0.13742463 -0.5902878 -0.090502314 -0.050969448 -0.11195568 -0.20629719
0.13042276 0.0040810155 -0.26087224 -0.08376527 -0.13596702 -0.04205844 -0.056858797 -0.25357395
-0.029827094 0.09374492 -0.02346393 0.03897945 -0.029559696 -0.61036384 0.16650392 -0.32386872
-0.11715259 -0.019558117 0.031078583 0.26108772 0.24316035 0.16848391 0.08146749 0.12096028
-0.07471115 -0.09835552 -0.07261645 0.15372993 0.4193291 0.020837912 0.39063898 0.014193488
-0.17779648 -0.14925723 0.061971575 -0.3603359 0.003431257 0.21056214 -0.06506889 0.2627569
-0.08760481 -0.048316453 -0.20891044 -0.045231488 -0.0032349876 0.026178245 0.23332377 -0.2988197
0.028469343 -0.06790963 0.03703048 -0.5667721 -0.23079447 0.22898152 -0.31991166 -0.20824347
-0.06386932 -0.11057547 -0.21086909 -0.2259858 0.023481166 0.008588042 0.07399642 -0.24256858
-0.4456626 0.58667105 0.0033741896 -0.12033747 0.007521929 -0.106409706 0.103774704 -0.270077
00000000: e251 cb3d 80cc ec3d 29a8 2a3f bff6 093e
00000010: cb6e 0abe 5b35 063f ffb2 41bd e75e 8ebe
00000020: c004 3f3d 24df f63d 7773 063e 6bf2 ecbd
00000030: d90f 233e e2a3 0e3e 3865 05be 47f4 87be
00000040: 82c5 853e 851d fcbd a701 ca3d 23e6 06be
00000050: 9080 eb3b 92cb 00be 24d7 5d3e 014b 7b3e
00000060: a692 e3bd 37e2 96bd a8fa aa3d a55d 8a3a
00000070: 3743 ebbd 9893 6dbc 7feb e0bb aa7d bdbc
00000080: dc80 b73e 4cda 44be 69e2 6d3e 04ad 8b3e
00000090: 95d4 bebe 91c1 753d 7fb6 003e b5e4 a03e
000000a0: 5432 1ebd 9679 26bf 733d 103e baab b33d
000000b0: 2ad0 8c3e 6b26 12bb ac61 593e c04a 703e
000000c0: 22a7 ee3d 8d00 1abe 42ee 04be df47 4f3e
000000d0: 3339 e0bd 9536 b83e da17 30bd c35e ddbc
000000e0: 48ad 6ebd 616f fcbc 4741 03bd 3b94 1c3d
000000f0: c427 2a3d c02a 91be 88d7 2dbc 286c 883a
00000100: 637f 1a3d 9cd6 d93e 9254 c63d eb5d adbe
00000110: 088b 06bd ecc5 743e 556d a5be afe1 43be
00000120: 15d3 9abe 597f ba3d e263 993d bbec 333e
00000130: 1739 60bd decb ad3d df17 69bc c635 e13d
00000140: 5614 133e 37ac af3e 4ec8 bebd 497e 263c
00000150: eab7 42be 2cb9 553d 391a 663e 48c1 c9bb
00000160: 04d7 903a c1ae 19bd 276e 61bd 69fe 513e
00000170: 6a39 15be 1e9b e43c a21f b7be e9eb 203d
00000180: 116f 4c3d e214 a53c 8c56 21bf 3eba 223c
00000190: e07f d13d ec5c e3bc 13d2 0c3e c394 a2be
000001a0: 00fa 1c3f 2697 693e fe45 76be 88cf cebe
000001b0: 6c4f 953c c62d 183d 6aa4 9cbd ab02 a2b9
000001c0: 94ee 2b3e 6886 a83e f5c0 c43b ebad fabe
000001d0: 5c00 b0be 8106 123f 52c2 1bbe 5467 283e
000001e0: 2b59 5bbe d18c bf3d d6a1 48be 41e3 ba3d
000001f0: 9642 c6bd 05e8 34be 2c70 8bbc 2713 2cbe
00000200: 98b5 f3bb 5a61 fa3c 4ef7 04bd c36c e5be
00000210: bd92 cebd cf85 61bd d48a e13e dfa9 483e
00000220: 5b5a 5fbf 0adf 183f aea4 8a3e 3bab 39bd
00000230: f178 08be 0ab6 13bd 5b19 eabc 0d11 373e
00000240: 724e 573e be7c 253d 7ce1 22be 3c2f b3be
00000250: 732b 183e b9ed a83c f772 0a3d 49a0 673e
00000260: 0613 593d f930 363e 09ea 1e3e 01ce 683d
00000270: 99c0 fb3d 9c99 933d ede9 46be 2c12 15bb
00000280: d5cb 85bd c0e0 d0ba e512 2fbd 3847 1fbc
00000290: a0db b1be f224 443e 80aa b03e 7280 173d
000002a0: dba3 553d 6ed2 a3bd f0f1 a1bd 7533 bebe
000002b0: 3ece fd3d fd6d 043d 7ba9 1f3e 5a75 1b3e
000002c0: 76fb 14be ee4f 943c 0bb9 0cbe 1a1d 17bf
000002d0: 4759 b9bd 57c5 50bd 0549 e5bd 923f 53be
000002e0: 8b8d 053e 0aba 853b 0c91 85be 208d abbd
000002f0: f03a 0bbe 7945 2cbd c5e4 68bd 72d4 81be
00000300: f357 f4bc 56fd bf3d 6d37 c0bc eaa8 1f3d
00000310: 2d27 f2bc ce40 1cbf 0180 2a3e 1fd2 a5be
00000320: b2ed efbd 5838 a0bc 8398 fe3c 4aad 853e
00000330: 07ff 783e 0c87 2c3e 6dd8 a63d 06ba f73d
00000340: 2902 99bd 9e6e c9bd efb7 94bd 616b 1d3e
00000350: 4eb2 d63e 45b4 aa3c d501 c83e ce8b 683c
00000360: 4810 36be e3d6 18be e8d5 7d3d f27d b8be
00000370: f1de 603b 9a9d 573e d742 85bd 1388 863e
00000380: 276a b3bd 79e7 45bd 9eec 55be a744 39bd
00000390: 1602 54bb c273 d63c 6dec 6e3e e5fe 98be
000003a0: 8a38 e93c 3414 8bbd 46ad 173d fa17 11bf
000003b0: 6355 6cbe 227a 6a3e 76cb a3be c73d 55be
000003c0: ebcd 82bd 6475 e2bd 11ee 57be d268 67be
000003d0: 935b c03c dcb4 0c3c 6f8b 973d e663 78be
000003e0: e32d e4be 1330 163f 8221 5d3b 7e73 f6bd
000003f0: 847a f63b 55ed d9bd d587 d43d 8847 8abe

fc1.bias f4 [400]
0.15241037 0.12864423 0.09335325 0.10696675 0.09055014 0.15774783 0.12854631 -0.023627955
0.14993225 -0.063986585 0.14608712 0.098889254 -0.0369686 -0.1709679 0.15807146 0.015360885
0.01695603 -0.13473603 -0.05788151 0.16217083 -0.13486914 0.16462544 0.1606816 -0.056966398
-0.100981 -0.054499786 -0.02099852 -0.054427326 -0.038467985 -0.12095294 -0.049413025 0.117825784
0.11592347 0.0016130278 0.13275059 -0.05858668 -0.03866125 -0.13753264 0.11975682 -0.07294811
-0.060207892 -0.1441514 0.14230235 -0.14072685 0.005768665 -0.120316155 -0.03105777 0.07209132
0.10694168 -0.14302449 -0.13493435 0.041591592 -0.012554848 -0.10203241 -0.14347371 0.095112436
0.035492864 0.10740788 0.0040518837 0.049006127 0.023873523 -0.059790704 0.017867396 -0.015368058
-0.14239518 0.13084382 -0.15400122 -0.114632 -0.013459971 0.14522876 -0.1477983 0.019809647
-0.0051090503 -0.071412764 0.063729875 -0.1433547 0.0020527414 -0.16089177 -0.13799936 -0.10766778
-0.1632366 0.08331607 -0.13432229 0.014076888 -0.09332727 -0.16394113 0.13093421 0.15341103
-0.1028484 -0.13739286 0.11335535 0.15243682 0.10666358 -0.080597945 -0.12664957 0.01831662
0.13498852 -0.16945054 0.03818073 -0.1309617 -0.100631006 0.08927049 0.009951504 0.16129269
0.043569658 -0.031796277 0.13708727 0.111893535 -0.13948274 -0.12896822 0.13711332 0.041345578
0.11833398 -0.14000903 0.059931576 -0.08667589 -0.15299058 0.07014505 0.10891727 0.1650813
0.16236885 -0.15001576 0.11014723 0.14431499 -0.15145385 0.15395461 0.15537302 0.16008383
-0.15605891 0.11162014 0.037391856 0.01182759 0.09505859 -0.07044197 -0.037318792 -0.0034441527
-0.17388117 -0.14466193 -0.15556651 -0.13475513 -0.069884464 0.11233012 -0.17385164 0.14978172
-0.0020452687 -0.13986501 0.10671421 0.12315783 -0.14414175 0.15183249 -0.08628618 0.04912042
0.04627706 -0.009196261 -0.14657183 0.11132785 -0.15117773 -0.0992148 -0.0107601825 0.04857076
0.15219468 -0.006555878 -0.032488592 -0.11682063 0.1599179 -0.16653027 -0.06910428 -0.08179838
-0.15400375 0.06703673 0.0984781 0.13281375 -0.014650261 -0.17292729 0.09778313 -0.16685748
-0.10188388 0.062294163 0.07675005 0.044085942 -0.10625807 -0.09162133 0.017053232 0.07932193
-0.008499428 -0.094255015 0.0646365 0.05709948 -0.059762433 -0.003821138 0.024278915 -0.08490191
-0.042317133 -0.06323806 -0.011343334 -0.104439825 -0.11440142 -0.11073948 0.032271296 0.004315491
-0.05436369 -0.0016214862 0.043844726 0.05112783 0.011850623 -0.04498916 -0.100397624 -0.080384724
-0.023476014 -0.12957482 -0.021567041 -0.11347793 -0.16335137 0.07276453 -0.027985506 -0.043340445
0.07877204 -0.028160937 -0.03801353 0.17190543 0.07630348 -0.14175704 0.12731531 -0.09103679
-0.039166313 0.08121766 0.1651004 -0.1399193 -0.10593859 -0.1515755 -0.16332024 -0.16016743
-0.13521966 0.03843948 0.067467846 0.1370986 0.1126669 -0.14265858 0.0038346052 -0.15920068
0.15360147 -0.03184898 0.06333013 -0.11178862 0.14573428 -0.1285259 0.05789441 -0.03296596
-0.021659834 -0.038768705 0.10373946 0.04265747 0.09374841 -0.059357006 -0.09659498 0.114625625
00000000: 7711 1c3e 50bb 033e fd2f bf3d 6211 db3d
00000010: 5a72 b93d a688 213e a5a1 033e 6a8f c1bc
00000020: d787 193e 660b 83bd dd97 153e 7386 ca3d
00000030: 636c 17bd 3612 2fbe 7cdd 213e 39ac 7b3c
00000040: 5fe7 8a3c 3ef8 09be 2a15 6dbd 1c10 263e
00000050: 231b 0abe 9293 283e b889 243e 9955 69bd
00000060: 20cf cebd 2b3b 5fbd 1705 acbc 30ef 5ebd
00000070: 9b90 1dbd 2db6 f7bd 5065 4abd a54e f13d
00000080: 4969 ed3d 3b6c d33a c5ef 073e 96f8 6fbd
00000090: 425b 1ebd 5bd5 0cbe 1043 f53d d265 95bd
000000a0: 8d9c 76bd 6d9c 13be b5b7 113e b31a 10be
000000b0: 1207 bd3b 5168 f6bd dd6c febc 9da4 933d
000000c0: 3d04 db3d 0375 12be 3b2c 0abe f25b 2a3d
000000d0: d9b2 4dbc 5ef6 d0bd c6ea 12be 4fca c23d
000000e0: f760 113d aaf8 db3d aac5 843b a6ba 483d
000000f0: 6892 c33c 19e7 74bd a55e 923c 4fca 7bbc
00000100: 0bd0 11be ecfb 053e 7fb2 1dbe 2fc4 eabd
00000110: 3687 5cbc d9b6 143e 7058 17be d747 a23c
00000120: d269 a7bb db40 92bd cf84 823d 93cb 12be
00000130: 4987 063b d0c0 24be b44f 0dbe ed80 dcbd
00000140: 7f27 27be 9ea1 aa3d c88b 09be bfa2 663c
00000150: 5e22 bfbd 2fe0 27be 9e13 063e c817 1d3e
00000160: 2fa2 d2bd b7b0 0cbe da26 e83d 6618 1c3e
00000170: 6f72 da3d 8910 a5bd 6db0 01be bc0c 963c
00000180: 6e3a 0a3e 7184 2dbe 6663 1c3d d31a 06be
00000190: a117 cebd 72d3 b63d a20b 233c e929 253e
000001a0: 1976 323d d03c 02bd 9b60 0c3e 7028 e53d
000001b0: 90d4 0ebe 3f10 04be 6f67 0c3e fb59 293d
000001c0: 1659 f23d 875e 0fbe d07a 753d 2183 b1bd
000001d0: 90a9 1cbe 35a8 8f3d 0510 df3d 130b 293e
000001e0: 0544 263e bb9d 19be df94 e13d 4fc7 133e
000001f0: b816 1bbe 47a6 1d3e 1b1a 1f3e 04ed 233e
00000200: e8cd 1fbe 1a99 e43d 3428 193d 82c8 413c
00000210: 14ae c23d e143 90bd 97db 18bd 4bb7 61bb
00000220: e80d 32be 4222 14be d44c 1fbe 40fd 09be
00000230: 961f 8fbd 550d e63d 2a06 32be 6160 193e
00000240: ea09 06bb c638 0fbe fb8c da3d 2c3a fc3d
00000250: e599 13be fa79 1b3e cfb6 b0bd 7e32 493d
00000260: 048d 3d3d eaab 16bc ed16 16be dbff e33d
00000270: 56ce 1abe 2131 cbbd 7a4b 30bc 22f2 463d
00000280: ecd8 1b3e b1d2 d6bb c212 05bd a83f efbd
00000290: 85c1 233e e986 2abe 8b86 8dbd e985 a7bd
000002a0: 29b3 1dbe 8e4a 893d e3ae c93d 5400 083e
000002b0: a607 70bc da13 31be 8642 c83d b0dc 2abe
000002c0: 7fa8 d0bd 2a28 7f3d 212f 9d3d 7693 343d
000002d0: d59d d9bd f7a3 bbbd 38b3 8b3c 8973 a23d
000002e0: 2f41 0bbc c608 c1bd 2460 843d 25e1 693d
000002f0: 74c9 74bd 0f6c 7abb 93e4 c63c 0de1 adbd
00000300: bb54 2dbd f582 81bd 64d9 39bc 8ce4 d5bd
00000310: 4b4b eabd 61cb e2bd e82e 043d f668 8d3b
00000320: 76ac 5ebd 0c88 d4ba 8796 333d 6a6b 513d
00000330: 1e29 423c 8e46 38bd 459d cdbd bfa0 a4bd
00000340: c550 c0bc 43af 04be 5dad b0bc 1e67 e8bd
00000350: 9545 27be 9205 953d dc41 e5bc c085 31bd
00000360: 3c53 a13d c4b1 e6bc 13b4 1bbd fa07 303e
00000370: 0045 9c3d c228 11be f25e 023e 7f71 babd
00000380: db6c 20bd 7255 a63d 1410 293e 0147 0fbe
00000390: 55f6 d8bd 9c36 1bbe 6c3d 27be ee02 24be
000003a0: 0677 0abe b772 1d3d 952c 8a3d 9363 0c3e
000003b0: e7bd e63d 1715 12be 004e 7b3b 8105 23be
000003c0: b449 1d3e 1374 02bd 3ab3 813d 6ff1 e4bd
000003d0: 5e3b 153e 4b9c 03be b022 6d3d 5107 07bd
000003e0: f76f b1bc efcb 1ebd 5b75 d43d 99b9 2e3d
000003f0: 2bff bf3d 5520 73bd 97d3 c5bd d7c0 ea3d

bn1.weight f4 [400]
0.4460806 0.77170914 1.0781903 0.34619027 0.4882179 1.1154052 0.8371898 0.61383855
0.5531633 1.0749842 0.6698339 1.1310375 0.45491278 0.7355527 0.89548695 0.9150337
0.60058695 0.42646563 0.82052803 0.56038284 0.46272755 1.2601427 0.96502286 0.76985514
1.1389484 0.71897954 0.71354026 -0.0017610311 0.3715644 0.66218174 0.8216839 1.0533286
0.8235135 0.9018392 0.89113736 0.55939925 0.45889297 0.8010107 1.1273052 0.5159702
0.5533557 0.4775499 0.8468902 0.612844 0.6464964 0.46513045 0.7113435 0.39899406
0.9359565 0.49547422 0.66399634 0.7589551 1.0273908 0.8705477 0.837157 0.3724736
0.82357 1.4527885 0.67338693 0.646218 0.5625346 1.0711468 0.7693459 0.5087359
0.9828345 0.90773344 0.53057164 0.59698576 0.503336 1.0650493 0.4570998 0.81301546
0.6008869 0.6140543 0.6822686 0.5910507 0.72452974 1.0203135 0.7796809 1.2520949
1.2014861 0.7671476 0.32491404 0.6622729 0.89359057 0.6375171 0.7437828 0.90871394
0.72027224 0.99484295 0.63256717 0.7704732 0.5497763 0.96245795 0.7357312 0.32076547
0.73614657 0.9634962 0.7002115 0.7848307 0.53941673 0.53394103 0.99189365 0.8426962
0.7831823 0.79075044 0.8343476 0.77213347 1.3051866 1.0855466 0.6321413 0.5225274
0.43530056 0.4780506 0.9424111 1.4818907 0.7679622 0.68379223 0.772244 0.80572414
1.0477879 0.8311098 0.67066413 0.9159407 0.61477154 0.9514294 0.6135804 1.0181984
0.834503 1.0606567 0.3446716 0.8973682 0.63390034 0.7661933 0.81050456 0.5856599
0.60161847 0.965218 0.8321284 0.79932684 0.6866333 1.1010802 0.7503611 0.4237695
0.6752833 1.238502 0.5593452 0.49202135 0.7664081 0.5774098 1.1069999 0.59907126
1.0439767 0.6896135 0.6077713 0.9643098 0.87059325 0.7349537 0.8113589 0.7490909
1.4216757 0.68023974 0.57837194 0.6656354 0.49567705 0.8242441 0.9559899 1.1502362
0.90151215 0.6356179 0.45922786 0.004440817 0.36196077 1.0116379 0.6951288 0.85661465
1.0058602 0.91706485 0.63689715 0.479486 0.7581689 0.73906475 0.8584962 1.0561514
0.89429176 -0.00028196102 0.9178947 0.78079915 0.71390605 1.108205 0.80001366 0.001987896
0.9186935 0.9535895 0.55934906 0.56390166 1.1307713 0.63347167 1.4837285 1.2678627
0.6151301 0.4492438 0.54493207 1.2769974 0.68711674 0.76867193 1.2028902 0.6402868
0.38829666 0.49216738 0.8544673 0.62170255 0.83442247 0.49060115 0.782047 1.130976
0.5390608 0.9820993 0.775001 0.80379325 0.90746516 0.45425463 1.147456 0.7151171
0.73530245 0.61974573 0.86364776 0.81224906 0.9608466 0.89712125 0.58478093 0.42467415
0.9563617 1.1542509 0.62967867 0.66085637 0.8174626 0.43467507 0.00067966006 0.7279131
0.61751926 0.64314306 0.8775072 0.669237 0.52290523 0.9312692 0.86792684 0.51007
0.89537334 1.0818743 1.1392266 0.9331642 0.95931435 0.6710216 0.751579 1.1865748
00000000: ad64 e43e bb8e 453f 2402 8a3f da3f b13e
00000010: b2f7 f93e 99c5 8e3f 1252 563f 8624 1d3f
00000020: 1c9c 0d3f 1599 893f 3c7a 2b3f d6c5 903f
00000030: 54ea e83e 2f4d 3c3f a23e 653f a63f 6a3f
00000040: 11c0 193f b459 da3e 200e 523f 4075 0f3f
00000050: a0ea ec3e 5b4c a13f bd0b 773f 3a15 453f
00000060: 10c9 913f 0b0f 383f 93aa 363f 66d2 e6ba
00000070: b03d be3e be84 293f e059 523f 79d3 863f
00000080: c8d1 523f efde 663f 9421 643f ca34 0f3f
00000090: 05f4 ea3e 0a0f 4d3f 894b 903f 9f16 043f
000000a0: b8a8 0d3f 6c81 f43e cccd 583f 58e3 1c3f
000000b0: ca80 253f 9425 ee3e 9c1a 363f f348 cc3e
000000c0: d89a 6f3f ccae fd3e aafb 293f e24a 423f
000000d0: 8b81 833f 37dc 5e3f ec4f 563f dcb4 be3e
000000e0: 7cd5 523f f9f4 b93f 1663 2c3f 8b6e 253f
000000f0: 4402 103f 571b 893f daf3 443f 843c 023f
00000100: 0b9b 7b3f 3861 683f 8bd3 073f 0fd4 183f
00000110: a1da 003f 8953 883f fc08 ea3e c821 503f
00000120: b9d3 193f aa32 1d3f 28a9 2e3f 194f 173f
00000130: c87a 393f a299 823f 2b99 473f a544 a03f
00000140: 4cca 993f c963 443f 225b a63e b78a 293f
00000150: 5ac2 643f 5234 233f 8d68 3e3f 7aa1 683f
00000160: c363 383f 07ae 7e3f ecef 213f bb3d 453f
00000170: 24be 0c3f a563 763f e158 3c3f 5f3b a43e
00000180: 1a74 3c3f b0a7 763f 1041 333f aaea 483f
00000190: 3717 0a3f 5cb0 083f beec 7d3f f0ba 573f
000001a0: a37e 483f 9f6e 4a3f ce97 553f 8aaa 453f
000001b0: 5b10 a73f 31f3 8a3f 03d4 213f 5bc4 053f
000001c0: b7df de3e 0cc3 f43e db41 713f 98ae bd3f
000001d0: 2c99 443f 020d 2f3f c8b1 453f f043 4e3f
000001e0: ea1d 863f 9dc3 543f a5b0 2b3f 177b 6a3f
000001f0: ab61 1d3f e190 733f 9b13 1d3f 5354 823f
00000200: fda1 553f 99c3 873f cc78 b03e ecb9 653f
00000210: 4b47 223f 3e25 443f 3a7d 4f3f cfed 153f
00000220: ab03 1a3f 8718 773f 5e06 553f afa0 4c3f
00000230: 33c7 2f3f 32f0 8c3f aa17 403f 51f8 d83e
00000240: 5edf 2c3f 3c87 9e3f 3f31 0f3f 39ea fb3e
00000250: 5233 443f 21d1 133f 2cb2 8d3f bc5c 193f
00000260: 07a1 853f 838a 303f e696 1b3f 02dd 763f
00000270: 33df 5e3f ed25 3c3f 38b5 4f3f 6cc4 3f3f
00000280: 78f9 b53f 3124 2e3f 2f10 143f 1567 2a3f
00000290: 62c9 fd3e a901 533f c1bb 743f f13a 933f
000002a0: 80c9 663f dbb7 223f ea1f eb3e 4684 913b
000002b0: ec52 b93e 5a7d 813f f6f3 313f 194b 5b3f
000002c0: 07c0 803f c3c4 6a3f b10b 233f 307f f53e
000002d0: 5b17 423f 5933 3d3f 68c6 5b3f f82f 873f
000002e0: 4ef0 643f 2bd4 93b9 26fb 6a3f 74e2 473f
000002f0: 8cc2 363f a9d9 8d3f b2cd 4c3f 5c47 023b
00000300: 7f2f 6b3f 711e 743f 8031 0f3f dc5b 103f
00000310: 1dbd 903f 332b 223f d1ea bd3f 5349 a23f
00000320: 2b79 1d3f 4903 e63e ab80 0b3f a774 a33f
00000330: e2e6 2f3f afc7 443f 4ef8 993f d6e9 233f
00000340: d2ce c63e 5dfd fb3e 5ebe 5a3f e627 1f3f
00000350: b69c 553f 1330 fb3e 3b34 483f d2c3 903f
00000360: e3ff 093f dc6a 7b3f 7766 463f 65c5 4d3f
00000370: a34f 683f 1094 e83e d7df 923f ea11 373f
00000380: c83c 3c3f a8a7 1e3f 0518 5d3f 8eef 4f3f
00000390: 0bfa 753f bda9 653f 34b4 153f e46e d93e
000003a0: 1fd4 743f 7ebe 933f 9f32 213f e22d 293f
000003b0: 3b45 513f bb8d de3e 372b 323a 8358 3a3f
000003c0: be15 1e3f 06a5 243f 50a4 603f 1e53 2b3f
000003d0: 1edd 053f a967 6e3f 7430 5e3f f393 023f
000003e0: 3037 653f db7a 8a3f 2dd2 913f d9e3 6e3f
000003f0: a095 753f 12c8 2b3f 7b67 403f afe1 973f

bn1.bias f4 [400]
-0.29484975 -0.45484385 -0.37366694 -0.23460454 -0.39135224 -0.07350664 -0.51969576 -0.38215843
-0.34080914 -0.5294605 -0.12683702 -0.30572417 -0.19003884 -0.11429226 -0.43905988 -0.5725817
-0.31380257 -0.27757564 -0.27883652 -0.32112867 -0.35953712 -0.17255111 -0.30865252 -0.25156787
-0.30735943 -0.543756 -0.32987335 -0.015680967 -0.23837401 -0.29144064 -0.48954388 -0.44219446
-0.36728412 -0.5042893 -0.28247774 -0.33281904 -0.096018255 -0.32673186 -0.26445228 -0.3208513
-0.24941492 -0.13522172 -0.3388375 -0.5401623 -0.29023027 -0.4294018 -0.2818103 -0.28022826
-0.44679633 -0.36912882 -0.22606556 -0.4698787 -0.06854352 -0.12963378 -0.41560486 -0.23763503
-0.18871106 -0.26003844 -0.43945506 -0.20924196 -0.34251514 -0.16330676 -0.4496645 -0.31835118
-0.29309914 -0.2934325 -0.3104135 -0.34177366 -0.22307599 0.013717583 -0.3449402 -0.50175476
-0.36923656 -0.31869134 -0.25363445 -0.27970427 -0.32465324 -0.3873749 -0.52091783 -0.41039002
-0.4816001 -0.5651665 -0.104885645 -0.4203253 -0.50038546 -0.28766817 -0.2517873 -0.2110197
-0.39898035 -0.1391815 -0.49483967 -0.40962628 -0.52766323 -0.021566708 -0.5023564 -0.37741202
-0.44031072 -0.39418834 -0.37648073 -0.31783828 -0.24560964 -0.260906 -0.4104311 -0.4076314
-0.32578647 -0.42580104 -0.2575556 -0.37493905 -0.052448552 -0.34846386 -0.30401096 -0.39015427
-0.2705289 -0.10678138 -0.4405338 -0.07069755 -0.23044448 -0.25610086 -0.3427982 -0.36321387
-0.46539518 -0.56355816 -0.31032968 -0.55241686 -0.47474682 -0.21658355 -0.3910119 -0.30276084
-0.22528586 -0.3388569 -0.20328091 -0.11126884 -0.31326735 -0.34945598 -0.12140156 -0.4055951
-0.32235175 -0.3398308 -0.17256169 -0.5192601 -0.37142047 -0.20585486 -0.1411925 -0.21685974
-0.33524373 -0.31904066 -0.19611043 -0.35486108 -0.42451993 -0.3656231 -0.2694191 -0.41021067
-0.46435854 -0.26649842 -0.39526132 -0.12432354 -0.41781044 -0.41701177 -0.4558415 -0.47779378
-0.13014624 -0.37027138 -0.37731683 -0.4431603 -0.34415108 -0.41227767 -0.09535254 -0.4056703
-0.33532214 -0.40796274 -0.26372212 -0.027356736 -0.18601067 -0.4311661 -0.08682843 -0.4068653
-0.2925538 -0.36978108 -0.114244334 -0.22963491 -0.41529447 -0.4303143 -0.5460799 -0.30889165
-0.48152387 -0.0096491305 -0.38553396 -0.4205478 -0.22650352 -0.3400935 -0.48914158 -0.015431436
-0.39883268 -0.040651362 -0.48740923 -0.37889597 -0.4627845 -0.2752955 -0.06757546 -0.25984442
-0.2728224 -0.32831547 -0.31217438 -0.10956627 -0.4309076 -0.3025296 -0.315982 -0.2751669
-0.35332337 -0.3344514 -0.3310264 -0.28085437 -0.33522946 -0.3448895 -0.42549014 -0.3764998
-0.07438396 -0.42833474 -0.31336847 -0.48550418 -0.33482283 -0.307773 -0.18156387 -0.17892107
-0.48818392 -0.28115392 -0.3617422 -0.28449392 -0.34370345 -0.24688475 -0.28375745 -0.27406007
-0.43715447 -0.27921554 -0.28714588 -0.3681342 -0.25148803 -0.3433353 -0.022276143 -0.35153753
-0.3791583 -0.38618496 -0.19065762 -0.37742692 -0.16198818 -0.32190862 -0.4530949 -0.13959028
-0.62952256 -0.26107273 -0.2711776 -0.62302774 -0.31717592 -0.5691963 -0.014189043 -0.38230538
00000000: 8cf6 96be 4be1 e8be 4651 bfbe 2c3c 70be
00000010: 525f c8be a68a 96bd c80a 05bf 45aa c3be
00000020: 897e aebe b98a 07bf 90e1 01be e187 9cbe
00000030: 8b99 42be 0f12 eabd 75cc e0be b794 12bf
00000040: bbaa a0be 651e 8ebe a9c3 8ebe fa6a a4be
00000050: 4015 b8be 3db1 30be b407 9ebe 81cd 80be
00000060: 375e 9dbe 9833 0bbf 29e5 a8be 5f75 80bc
00000070: 5118 74be b537 95be 7fa5 fabe 5067 e2be
00000080: aa0c bcbe 1b19 01bf eca0 90be 4267 aabe
00000090: 38a5 c4bd 6649 a7be 4a66 87be 9f46 a4be
000000a0: a066 7fbe 9077 0abe 1c7c adbe 1448 0abf
000000b0: 1099 94be 8dda dbbe 7149 90be 147a 8fbe
000000c0: 7dc2 e4be 74fe bcbe bb7d 67be f193 f0be
000000d0: 8c60 8cbd b8be 04be 29ca d4be 9956 73be
000000e0: 793d 41be c223 85be 4100 e1be 8643 56be
000000f0: 255e afbe e339 27be 6d3a e6be edfe a2be
00000100: 1711 96be c93c 96be 85ee 9ebe f5fc aebe
00000110: 086e 64be b7bf 603c 009c b0be 0073 00bf
00000120: 930c bdbe 832b a3be 60dc 81be 6635 8fbe
00000130: f338 a6be 0156 c6be df5a 05bf a41e d2be
00000140: 4a94 f6be c0ae 10bf 49ce d6bd e134 d7be
00000150: 4319 00bf 3e49 93be 44ea 80be 8c15 58be
00000160: 2747 ccbe 9885 0ebe a05b fdbe 89ba d1be
00000170: f014 07bf aaac b0bc 6e9a 00bf 263c c1be
00000180: 6870 e1be 0ed3 c9be 15c2 c0be b3bb a2be
00000190: 1881 7bbe 7995 85be 0624 d2be 10b5 d0be
000001a0: 7ccd a6be 9802 dabe 54de 83be 03f8 bfbe
000001b0: 4bd4 56bd db69 b2be 53a7 9bbe 4dc2 c7be
000001c0: c482 8abe 32b0 dabd a58d e1be e1c9 90bd
000001d0: a3f9 6bbe a71f 83be 3f83 afbe 2bf7 b9be
000001e0: 4748 eebe 5945 10bf 88e3 9ebe 316b 0dbf
000001f0: 0412 f3be 14c8 5dbe b632 c8be 7803 9bbe
00000200: 56b1 66be a77e adbe df28 50be ebe0 e3bd
00000210: 9464 a0be e5eb b2be 62a1 f8bd 29aa cfbe
00000220: 4a0b a5be 4dfe adbe 03b4 30be 3bee 04bf
00000230: d32a bebe 9ecb 52be c494 10be 7b10 5ebe
00000240: 11a5 abbe 4c59 a3be 2cd1 48be 5ab0 b5be
00000250: ad5a d9be f332 bbbe 4df1 89be 2207 d2be
00000260: 67c0 edbe 7b72 88be b15f cabe 579d febd
00000270: 40eb d5be 9182 d5be 0f64 e9be 63a1 f4be
00000280: 0e45 05be 3694 bdbe ac2f c1be e8e5 e2be
00000290: 9234 b0be 0f16 d3be 3148 c3bd 04b4 cfbe
000002a0: 58af abbe 7ee0 d0be 9606 87be 3c1b e0bc
000002b0: 9579 3ebe cec1 dcbe 1bd3 b1bd a650 d0be
000002c0: 9dc9 95be f253 bdbe eff8 e9bd 6a25 6bbe
000002d0: 7aa1 d4be 2852 dcbe e4cb 0bbf 0c27 9ebe
000002e0: 4c8a f6be 6317 1ebc b564 c5be 0b52 d7be
000002f0: 8af0 67be bc20 aebe c470 fabe 22d4 7cbc
00000300: cc33 ccbe 0b82 26bd b48d f9be a7fe c1be
00000310: 17f2 ecbe 88f3 8cbe 0165 8abd 540a 85be
00000320: 61af 8bbe f718 a8be 52d5 9fbe 4864 e0bd
00000330: ec9f dcbe 29e5 9abe 65c8 a1be ade2 8cbe
00000340: cde6 b4be 373d abbe 4b7c a9be 25cc 8fbe
00000350: 32a3 abbe 5b95 b0be d8d9 d9be 95c4 c0be
00000360: 9e56 98bd b14e dbbe d571 a0be 0194 f8be
00000370: e66d abbe 6c94 9dbe e1eb 39be 1637 37be
00000380: 3ef3 f9be 68f3 8fbe 4636 b9be 30a9 91be
00000390: e6f9 afbe 5bcf 7cbe a848 91be 9a51 8cbe
000003a0: b6d2 dfbe 57f5 8ebe c904 93be 167c bcbe
000003b0: 0ac3 80be a5c9 afbe 757c b6bc bafc b3be
000003c0: 0921 c2be 09ba c5be c03b 43be 1a3e c1be
000003d0: 3be0 25be 35d1 a4be 0efc e7be c1f0 0ebe
000003e0: 6428 21bf 53ab 85be cad7 8abe bf7e 1fbf
000003f0: e264 a2be d9b6 11bf 2979 68bc 88bd c3be

bn1.running_mean f4 [400]
0.27997705 -1.175193 0.17920657 -0.8015958 0.9348499 1.3504292 -0.26400697 -0.22958103
-0.020948965 -0.98148495 -0.06935619 0.5045806 0.7192866 0.28958577 -0.90949017 -0.37380907
0.26946378 -0.39180857 0.6087491 -0.31348923 -1.5194157 0.44767556 0.01569689 0.31798887
-0.17051597 0.22484818 -0.16749702 -0.25291616 -0.6711901 0.10426745 -0.81862897 -0.28490508
0.13287699 -0.8857258 -0.2772431 0.23112652 0.60253054 1.1573483 -1.6906368 -0.059229784
-0.39730105 -0.82266426 -0.1645496 -0.32922548 -0.6637248 -1.3059816 -0.045585144 0.31211382
-1.1198298 -0.44359702 0.48598054 0.36403972 -0.2879721 0.09599996 -0.4295102 -0.4160513
0.7511908 0.018152758 0.45162934 -1.0629063 0.5755409 0.17101371 -0.65673065 0.037798334
-0.55068046 1.0861892 -0.44843212 -0.62961936 -0.29487824 0.98624396 -0.11027573 -1.1214292
-0.41008785 0.24561921 -0.72248733 0.34293243 0.14817886 -0.8777133 0.37664753 -0.47585487
-0.79102546 -1.0740567 1.3855891 -0.5863245 0.99399126 -0.16646166 0.68985534 0.6278308
-0.3892243 0.7106184 -0.7729679 -0.15480027 0.47396418 1.3741243 -1.4126201 0.88490194
-1.3378569 -0.6846011 0.7566617 0.2775931 0.7527735 0.20689312 0.11678035 -0.95803463
0.89972764 0.97464615 -0.45155448 0.040433772 1.2443709 0.028922021 1.2117624 -0.32262874
-0.109281145 -0.42658898 0.039596166 1.2238615 0.40472537 -0.7382051 -1.2892973 0.66696084
0.8634322 0.7170175 0.33750093 -0.6828987 -0.28042042 2.0727139 -1.1539147 -0.2493674
0.84257495 1.2725924 0.46554816 0.019321274 -0.569022 0.14110501 -0.50363594 -0.11415503
0.23151597 0.53708065 0.23762329 -0.3806644 0.67706305 0.59355646 -1.4175318 -0.834994
-0.61520725 0.3646519 0.39300326 1.0586227 -0.5696627 0.7638783 0.9790963 0.4669074
0.060184475 -0.9882308 -1.4730682 0.3019679 -0.99832153 -2.3386378 1.428613 1.3477834
0.18590558 -0.070661105 -0.08479184 -0.6242443 0.053799495 1.0130868 0.4450593 -0.64506125
-1.5593587 -0.7712438 0.37306514 0.18955512 0.08086908 0.035326388 -0.32439518 -0.938127
-0.62714756 -0.57924426 1.179274 0.3196806 0.49265933 -0.7291152 -0.8722423 0.7260613
1.4693366 -0.09374098 -1.0306841 0.6250478 0.30689678 0.30417332 0.9791664 0.07458105
-0.23544444 0.92414504 0.30727208 0.35901883 -0.64594835 -0.3680735 0.7022459 0.11410894
0.3330729 -1.5041825 0.510792 0.3624246 -1.6145315 -0.20446292 -0.30062827 0.18386412
0.34814274 -0.2869078 -0.12037877 -0.41324574 -0.4212991 -0.085680194 -0.6204627 -0.25867608
0.17771097 -0.1992921 -0.95020854 -2.0478241 0.06017813 -0.5858876 1.1728868 -0.43627173
-1.4793962 0.3833657 0.13208203 -0.39886633 -0.621084 -0.77266574 -0.1868413 -0.7928655
0.5234723 0.39183673 -0.566156 0.64199585 0.34140843 1.1053313 -0.029337063 -0.35879493
-0.117814444 -1.348511 -0.65091544 -1.0819925 -0.12195207 0.3811479 -2.1814954 0.8217991
-1.5168235 0.3646748 0.17610542 -0.42083922 0.66733724 1.0266018 1.299915 -0.05908958
00000000: 2759 8f3e b96c 96bf ed81 373e 6235 4dbf
00000010: 5352 6f3f ddda ac3f ec2b 87be 4a17 6bbe
00000020: 2a9d abbc 9942 7bbf 9e0a 8ebd 322c 013f
00000030: 2b23 383f 9644 943e 59d4 68bf e763 bfbe
00000040: 28f7 893e 229b c8be fbd6 1b3f a981 a0be
00000050: 377c c2bf bb35 e53e c496 803c 70cf a23e
00000060: bd9b 2ebe 9a3e 663e 5784 2bbe 3a7e 81be
00000070: 1dd3 2bbf 2c8a d53d ab91 51bf 14df 91be
00000080: e810 083e edbe 62bf cff2 8dbe 6eac 6c3e
00000090: 713f 1a3f fd23 943f c966 d8bf ee9a 72bd
000000a0: 0b6b cbbe 209a 52bf b17f 28be 3e90 a8be
000000b0: dee9 29bf 682a a7bf 7db7 3abd 62cd 9f3e
000000c0: 9556 8fbf 261f e3be 71d2 f83e 6a63 ba3e
000000d0: 1471 93be a19b c43d c3e8 dbbe ad04 d5be
000000e0: 0a4e 403f 18b5 943c f63b e73e 500d 88bf
000000f0: a656 133f 381e 2f3e 801f 28bf 6dd2 1a3d
00000100: 65f9 0cbf 3f08 8b3f e598 e5be bc2e 21bf
00000110: 48fa 96be 7c7a 7c3f 3ed8 e1bd fe8a 8fbf
00000120: 09f7 d1be 9a83 7b3e eef4 38bf d794 af3e
00000130: 33bc 173e d2b1 60bf f2d7 c03e 40a3 f3be
00000140: a580 4abf b17a 89bf fc5a b13f 5d19 16bf
00000150: 3676 7e3f ed74 2abe 5c9a 303f 85b9 203f
00000160: 6848 c7be 16eb 353f 39e1 45bf f683 1ebe
00000170: 6fab f23e 4ee3 af3f bcd0 b4bf ef88 623f
00000180: e53e abbf 0542 2fbf 95b4 413f af20 8e3e
00000190: c4b5 403f cadb 533e 892a ef3d c241 75bf
000001a0: 8d54 663f 6982 793f 2632 e7be e29d 253d
000001b0: 8c47 9f3f e0ed ec3c 081b 9b3f 982f a5be
000001c0: cbce dfbd df69 dabe 972f 223d 7ea7 9c3f
000001d0: 2a38 cf3e 02fb 3cbf b207 a5bf f2bd 2a3f
000001e0: e509 5d3f 758e 373f eccc ac3e 73d2 2ebf
000001f0: 4493 8fbe 58a7 0440 7ab3 93bf 2b5a 7fbe
00000200: feb2 573f 4fe4 a23f 545c ee3e a647 9e3c
00000210: 6dab 11bf d57d 103e 49ee 00bf 1dca e9bd
00000220: 8612 6d3e 1e7e 093f 8553 733e 72e6 c2be
00000230: 0154 2d3f 51f3 173f af71 b5bf 2bc2 55bf
00000240: 397e 1dbf a7b3 ba3e b937 c93e f380 873f
00000250: 6ad5 11bf 878d 433f 0ea6 7a3f 7d0e ef3e
00000260: ff83 763d b2fc 7cbf 808d bcbf 899b 9a3e
00000270: 0092 7fbf 3eac 15c0 cadc b63f 2b84 ac3f
00000280: 085e 3e3e c5b6 90bd 58a7 adbd 79ce 1fbf
00000290: dc5c 5c3d d4ac 813f d0de e33e bc22 25bf
000002a0: 1199 c7bf 3c70 45bf 6502 bf3e bd1a 423e
000002b0: b09e a53d 67b2 103d 2017 a6be 1729 70bf
000002c0: be8c 20bf 5a49 14bf 73f2 963f 2dad a33e
000002d0: d83d fc3e 4ba7 3abf 454b 5fbf 27df 393f
000002e0: 3913 bc3f 45fb bfbd 75ed 83bf 2203 203f
000002f0: 9321 9d3e 9bbc 9b3e a6aa 7a3f f3bd 983d
00000300: 5918 71be c594 6c3f c452 9d3e 51d1 b73e
00000310: df5c 25bf 2174 bcbe 63c6 333f f3b1 e93d
00000320: 8888 aa3e 0d89 c0bf 44c3 023f b88f b93e
00000330: f8a8 cebf ba5e 51be f3eb 99be e046 3c3e
00000340: c43f b23e 94e5 92be 2589 f6bd f294 d3be
00000350: 84b4 d7be 1979 afbd a5d6 1ebf 3171 84be
00000360: ddf9 353e 3a13 4cbe de40 73bf 8d0f 03c0
00000370: 587d 763d bbfc 15bf 2821 963f 025f dfbe
00000380: db5c bdbf 8248 c43e 8340 073e 3538 ccbe
00000390: 5cff 1ebf 6ccd 45bf 5353 3fbe 3cf9 4abf
000003a0: 4802 063f d39e c83e 9aef 10bf d759 243f
000003b0: 16cd ae3e 7f7b 8d3f 4854 f0bc f8b3 b7be
000003c0: b348 f1bd 029c acbf 65a2 26bf bb7e 8abf
000003d0: 02c2 f9bd d125 c33e 9f9d 0bc0 6d61 523f
000003e0: 4627 c2bf a8b6 ba3e fb54 343e 3d78 d7be
000003f0: 9dd6 2a3f b067 833f 9d63 a63f ea07 72bd

bn1.running_var f4 [400]
5.92225 3.9909995 5.5247583 3.9511251 4.276128 5.675906 5.6336026 6.57838
4.037665 1.9881561 3.3546689 3.2863345 5.205858 5.7528944 3.9462507 4.9606037
5.83439 3.9354439 5.3043356 7.184391 4.8996277 5.892478 5.7792115 8.4798565
3.5453308 3.2927537 7.390217 0.26271206 8.301399 4.4404707 2.1986125 4.28522
3.3129234 2.2190807 5.9818363 5.0322585 4.0994873 4.8056006 6.51406 4.858168
4.7304606 4.4317336 6.9388986 7.576848 4.7731423 7.1860924 5.218801 4.35667
5.066359 5.9349723 3.4465857 4.370907 6.7422657 6.4393992 3.5270064 4.506965
4.2220235 6.823632 2.7236385 6.20322 2.2716372 2.3191407 6.304998 2.8799047
3.6395793 5.458978 4.1694913 3.112299 4.676209 3.7320096 5.036857 5.4895077
8.355265 4.2082076 4.85726 8.080765 4.891702 4.565743 4.246075 2.6677706
2.87069 7.283693 7.985789 6.917525 7.007945 3.658324 4.108517 5.152899
6.339166 5.840645 4.2338047 6.538694 2.8260717 6.444527 6.020488 7.065386
6.013183 8.696192 3.9945896 5.888693 6.6812153 3.0259113 5.288903 8.32753
8.044748 5.6574664 4.1362705 5.02014 4.6504693 4.659557 8.317022 3.9253216
6.125789 5.5777392 7.1933365 4.5807514 8.088466 10.508025 3.752449 4.2594147
4.653436 5.190029 4.056745 4.142924 4.877912 6.3319745 4.247893 7.058484
3.0809462 6.0543823 6.4239655 3.7232785 2.2770174 2.832816 2.2926137 4.9976506
4.3508716 4.9612894 4.035697 5.010894 2.3994462 4.531657 5.190014 7.448123
3.3904197 4.0277386 9.035547 5.2504134 3.5665731 5.2926455 4.1076045 6.0906787
5.5893264 4.5919447 8.7749195 7.7237816 5.619462 6.6186366 6.718252 6.783066
4.3426595 2.882952 6.014953 9.646084 4.145024 6.054913 2.6308224 5.2061186
8.11413 3.5998197 3.9442415 0.18624148 6.242076 6.271286 3.0220997 6.345108
3.1533542 5.4819465 6.571536 5.0914183 8.597032 10.063164 5.2846518 4.55035
5.9773164 0.17124584 5.154113 3.1628194 3.5697773 3.0739834 5.2053514 0.3991237
3.460559 3.0315073 4.919243 9.931747 4.425023 4.5238004 4.568061 5.545557
3.96392 4.1736517 4.063426 2.0200608 7.5917296 6.6318736 1.8382634 7.2053814
5.840594 5.332972 2.3280034 7.236068 5.525696 4.841584 7.121213 4.2308283
3.2466705 3.047679 3.5140197 6.955303 2.8243825 4.157621 3.484742 4.8504195
3.377133 8.572513 4.79476 4.696161 5.4655685 4.6650376 5.220338 4.422853
4.692448 4.0007463 4.8692503 7.8530188 5.8446326 4.43565 0.22074379 3.6221192
3.8489106 4.9338884 5.134971 7.045179 5.4604325 4.6648445 10.963904 6.365957
4.5797873 6.262108 4.519523 2.3492103 4.7034655 6.9092064 2.9613552 7.716631
00000000: 1283 bd40 896c 7f40 d2ca b040 3cdf 7c40
00000010: 0ad6 8840 06a1 b540 7946 b440 1782 d240
00000020: 8d34 8140 e67b fe3f e5b2 5640 4e53 5240
00000030: 6496 a640 b617 b840 5f8f 7c40 44bd 9e40
00000040: 53b3 ba40 50de 7b40 1ebd a940 88e6 e540
00000050: c0c9 9c40 2e8f bc40 4def b840 7ead 0741
00000060: b3e6 6240 7abc 5240 a87c ec40 3282 863e
00000070: 88d2 0441 5618 8e40 11b6 0c40 8620 8940
00000080: f006 5440 6b05 0e40 346b bf40 4308 a140
00000090: 002f 8340 7bc7 9940 2e73 d040 1d76 9b40
000000a0: ef5f 9740 c3d0 8d40 750b de40 8a75 f240
000000b0: 95bd 9840 78f4 e540 6b00 a740 d769 8b40
000000c0: 9d1f a240 4beb bd40 dc94 5c40 78de 8b40
000000d0: a4c0 d740 8f0f ce40 79ba 6140 0f39 9040
000000e0: d11a 8740 315b da40 1850 2e40 c780 c640
000000f0: 8162 1140 cd6c 1440 8bc2 c940 5c50 3840
00000100: deee 6840 f3af ae40 796c 8540 e82f 4740
00000110: 81a3 9540 3fd9 6e40 ef2d a140 0caa af40
00000120: 2aaf 0541 a3a9 8640 ad6e 9b40 d04a 0141
00000130: d388 9c40 911a 9240 d9df 8740 c1bc 2a40
00000140: 63b9 3740 0314 e940 958b ff40 5d5c dd40
00000150: 1641 e040 fb21 6a40 f978 8340 8ce4 a440
00000160: 73da ca40 90e6 ba40 547b 8740 fb3c d140
00000170: 5cde 3440 9139 ce40 d6a7 c040 a417 e240
00000180: ff6b c040 9a23 0b41 5ba7 7f40 2c70 bc40
00000190: 84cc d540 88a8 4140 b23e a940 903d 0541
000001a0: 4ab7 0041 f709 b540 545c 8440 fda4 a040
000001b0: a5d0 9440 171b 9540 8612 0541 7838 7b40
000001c0: 7706 c440 d77c b240 d02f e640 8495 9240
000001d0: 5b6a 0141 df20 2841 2028 7040 204d 8840
000001e0: f3e8 9440 b814 a640 dbd0 8140 d592 8440
000001f0: db17 9c40 899f ca40 bdee 8740 1adf e140
00000200: 392e 4540 80bd c140 2091 cd40 324a 6e40
00000210: a7ba 1140 db4c 3540 2fba 1240 c1ec 9f40
00000220: 573a 8b40 e2c2 9e40 6e24 8140 3e59 a040
00000230: 8790 1940 5603 9140 9814 a640 0657 ee40
00000240: a3fc 5840 3ce3 8040 9a91 1041 6303 a840
00000250: bc42 6440 5a5d a940 7f71 8340 d7e6 c240
00000260: c3db b240 36f1 9240 1266 0c41 3829 f740
00000270: a2d2 b340 dfcb d340 ecfb d640 e00e d940
00000280: 11f7 8a40 4982 3840 7f7a c040 5c56 1a41
00000290: 09a4 8440 d9c1 c140 655f 2840 8698 a640
000002a0: 7ad3 0141 7263 6640 746e 7c40 16b6 3e3e
000002b0: 16bf c740 60ae c840 156a 4140 200b cb40
000002c0: 8ed0 4940 1b6c af40 064a d240 e6ec a240
000002d0: 718d 0941 b802 2141 de1b a940 789c 9140
000002e0: 2d46 bf40 125b 2f3e 7eee a440 a26b 4a40
000002f0: 3b77 6440 25bc 4440 3d92 a640 f159 cc3e
00000300: cc79 5d40 3704 4240 706a 9d40 70e8 1e41
00000310: ca99 8d40 f9c2 9040 8e2d 9240 3475 b140
00000320: deb0 7d40 8e8e 8540 9607 8240 ad48 0140
00000330: 73ef f240 4f38 d440 374c eb3f 7c92 e640
00000340: 25e6 ba40 b5a7 aa40 02fe 1440 de8d e740
00000350: 80d2 b040 42ee 9a40 fae0 e340 f262 8740
00000360: 73c9 4f40 2c0d 4340 b3e5 6040 d891 de40
00000370: afc2 3440 3b0b 8540 0306 5f40 a336 9b40
00000380: f222 5840 0329 0941 ad6e 9940 f346 9640
00000390: f0e5 ae40 fd47 9540 020d a740 0388 8d40
000003a0: 8928 9640 1d06 8040 e6d0 9b40 ee4b fb40
000003b0: 3b07 bb40 d8f0 8d40 a90a 623e cdd0 6740
000003c0: 8d54 7640 6ae2 9d40 af51 a440 1b72 e140
000003d0: ddbb ae40 6846 9540 276c 2f41 ebb5 cb40
000003e0: 9e8d 9240 3063 c840 ef9f 9040 7659 1640
000003f0: ca82 9640 3818 dd40 d886 3d40 a4ee f640

fc2.weight f4 [300, 400]
0.1116965 -0.47453794 -0.6448291 0.025896575 -0.08234268 -0.38202703 -0.0045301546 -0.17120673
0.3735305 -0.09825247 -0.029280616 -0.21878892 -0.16127305 0.14839219 -0.02012965 -0.7020508
-0.6268174 0.2641803 0.2044746 0.28727892 -0.047148775 -0.4172033 0.21896674 -0.2560124
-0.1651591 0.14293459 0.46249107 0.0037601602 0.033958305 0.05358354 -0.25092056 0.23836955
-0.04173362 0.09929929 0.08914886 -0.16091736 0.085118346 -0.38472167 -0.16228494 -0.022398423
-0.076135315 -0.017298158 -0.2130701 0.31002477 -0.81394875 -0.5928711 -0.6737952 -0.01057623
-0.17021933 -0.011103082 -0.52008736 -0.031548735 -0.057160944 -0.2402935 -0.012309395 -0.5111553
-0.4759417 0.31896737 0.16715693 0.16994034 0.21055463 0.17510834 -0.6939387 0.042134576
0.21362823 -0.47737512 0.019257538 0.18669096 -0.39775655 -0.7492755 -0.41009596 0.06617547
-0.02574561 0.3633603 -0.23358722 0.31009966 0.4315871 0.11612982 0.12131986 -0.025288124
-0.16267368 -0.33441544 -0.20538127 -0.5533484 -0.048592873 -0.24344358 0.27868906 -0.069224596
-0.1877144 0.38464236 -0.76899034 -0.28998613 0.1363495 0.16178413 -0.4043056 -0.18878464
0.16612379 -0.2787275 -0.31261557 -0.09726877 -0.0030016587 -0.35742655 0.31509954 0.09785959
0.08301212 -0.09593613 -0.5841283 0.044900365 -0.33328587 -0.62473744 0.0043234406 0.052113168
0.30607295 0.27175048 -0.34928742 -0.26183695 0.3437895 -0.42378986 -0.005653069 0.19459568
-0.4946913 -0.15078604 -0.06571641 -0.07093587 0.14832503 -0.07408669 -0.24041457 -0.18869552
-0.4201099 0.16697343 0.034369964 -0.06330118 -0.10895891 0.36522144 0.116429284 0.051280007
-0.08112257 0.0857696 0.06372297 -0.36547473 -0.433561 0.074547686 -0.16256939 0.15909359
0.28751808 0.010646077 -0.6706844 0.059059143 -0.09495766 -0.10326001 0.14582582 -0.20689164
-0.52607393 -0.14189489 -0.1444695 -0.16112967 -0.18246624 -0.07557655 0.17933695 -0.08756537
-0.071917154 -0.49677613 0.10107181 -0.28567752 -0.059901353 -0.16843496 -0.5010774 -0.16530946
0.36849746 -0.2487861 -0.7672516 0.00032884156 0.32292426 0.46729442 0.11613428 -0.082662046
0.25536463 -0.5315415 -0.32002532 -0.44240433 -0.06030506 -0.041670468 0.16476883 0.065086186
-0.039198406 -0.015913073 -0.16825417 -0.36792195 -0.5299538 -0.3122704 -0.1366774 -0.049410205
0.03669766 -0.02750817 -0.27133068 -0.6900138 -0.07001177 -0.26389056 -0.12619439 0.18705986
0.020589888 -0.15368824 0.35360932 0.2391574 0.010854931 0.0752809 -0.19162962 -0.31433037
0.19569142 0.1703286 -0.18217961 0.008489092 -0.055042855 0.4655776 -0.07899172 0.40522787
-0.4298871 -0.3767232 0.1776204 -0.03174343 -0.24321029 -0.20451513 0.1553687 0.13975894
-0.09595187 0.24243274 0.070278525 0.14237101 -0.45415613 -0.8236812 -0.10247801 0.1885843
-0.3600839 0.15617022 -0.17910299 0.12186834 -0.022059547 -0.19045311 -0.027173175 0.28590184
-0.046181675 -0.32240653 -0.23384167 -0.069094054 0.090227805 -0.11821486 0.062304497 -0.16277221
-0.43944475 -0.30153954 -0.050545868 -0.15751715 -0.40410998 0.071114056 -0.14039658 0.18605062
00000000: 22c1 e43d a3f6 f2be 8513 25bf 0e25 d43c
00000010: 47a3 a8bd 0c99 c3be b171 94bb d150 2fbe
00000020: 643f bf3e 9738 c9bd e7dd efbc 340a 60be
00000030: c324 25be 1ff4 173e f0e6 a4bc 9ab9 33bf
00000040: 1b77 20bf a442 873e ca61 513e 3916 933e
00000050: 131f 41bd ac9b d5be d138 603e 0f14 83be
00000060: 781f 29be 725d 123e a1cb ec3e 056d 763b
00000070: dd17 0b3d 6a7a 5b3d a978 80be 2617 743e
00000080: dff0 2abd 6d5d cb3d ad93 b63d 85c7 24be
00000090: 8752 ae3d 3dfa c4be 062e 26be e67c b7bc
000000a0: d5ec 9bbd deb4 8dbc 0c2f 5abe 91bb 9e3e
000000b0: f25e 50bf 67c6 17bf d87d 2cbf ec47 2dbc
000000c0: fa4d 2ebe b4e9 35bc 7224 05bf 3f39 01bd
000000d0: 9821 6abd 800f 76be 58ad 49bc 13db 02bf
000000e0: a1ae f3be b14f a33e 302b 2b3e d704 2e3e
000000f0: a29b 573e 9a4f 333e f7a5 31bf 4e95 2c3d
00000100: 5cc1 5a3e 836a f4be fcc1 9d3c ea2b 3f3e
00000110: bfa6 cbbe 85d0 3fbf 19f8 d1be 0187 873d
00000120: 75e8 d2bc 5c0a ba3e 7d31 6fbe 62c5 9e3e
00000130: fcf8 dc3e 79d5 ed3d 8c76 f83d 0a29 cfbc
00000140: ee93 26be 8038 abbe 784f 52be 3ea8 0dbf
00000150: 5209 47bd 4649 79be 55b0 8e3e a0c5 8dbd
00000160: 3438 40be d8ef c43e 8ddc 44bf 1079 94be
00000170: 349f 0b3e bdaa 253e 2501 cfbe c350 41be
00000180: 5b1c 2a3e 5fb5 8ebe 260f a0be d934 c7bd
00000190: 7ab7 44bb 9d00 b7be ba54 a13e 9c6a c83d
000001a0: 4202 aa3d 297a c4bd 6f89 15bf 72e9 373d
000001b0: 72a4 aabe cbee 1fbf a6ab 8d3b 9e74 553d
000001c0: 98b5 9c3e e122 8b3e cdd5 b2be 7e0f 86be
000001d0: 2d05 b03e fcfa d8be 613d b9bb 1744 473e
000001e0: 2e48 fdbe a867 1abe 5396 86bd d346 91bd
000001f0: 84e2 173e c3ba 97bd 3d2f 76be 6639 41be
00000200: a518 d7be 15fb 2a3e 85c7 0c3d 0da4 81bd
00000210: d925 dfbd 4efe ba3e 7a72 ee3d fc0a 523d
00000220: 9723 a6bd f9a7 af3d 3081 823d 811f bbbe
00000230: b5fb ddbe 75ac 983d 9778 26be 6ee9 223e
00000240: 9235 933e e26c 2e3c f9b1 2bbf 00e8 713d
00000250: 2979 c2bd fc79 d3bd 5d53 153e 67db 53be
00000260: c8ac 06bf e54c 11be d0ef 13be 2dff 24be
00000270: 6ed8 3abe e1c7 9abd 1ba4 373e 7955 b3bd
00000280: 4d49 93bd 7159 febe bdfe ce3d 5344 92be
00000290: 1f5b 75bd 377a 2cbe 9c46 00bf e246 29be
000002a0: b3ab bc3e c9c1 7ebe 9a6a 44bf 5e68 ac39
000002b0: 5456 a53e 3741 ef3e cfd7 ed3d b84a a9bd
000002c0: 27bf 823e 1b13 08bf 5cda a3be d282 e2be
000002d0: 7002 77bd a7ae 2abd 29b9 283e e84b 853d
000002e0: 828e 20bd 225c 82bc d24a 2cbe 4460 bcbe
000002f0: 0dab 07bf e8e1 9fbe 29f5 0bbe 5b62 4abd
00000300: 4950 163d d058 e1bc dbeb 8abe bfa4 30bf
00000310: 5562 8fbd aa1c 87be 1a39 01be 9f8c 3f3e
00000320: 20ac a83c 7360 1dbe 480c b53e ade5 743e
00000330: e1d8 313c df2c 9a3d 8e3a 44be e9ef a0be
00000340: 5563 483e 9f6a 2e3e 4b8d 3abe d515 0b3c
00000350: 9e74 61bd 3060 ee3e 69c6 a1bd 077a cf3e
00000360: 291a dcbe dde1 c0be 1fe2 353e 6605 02bd
00000370: 1e0c 79be 6a6c 51be f918 1f3e f81c 0f3e
00000380: 6a82 c4bd 4a40 783e 30ee 8f3d b5c9 113e
00000390: 2787 e8be c5dc 52bf fedf d1bd 3e1c 413e
000003a0: eb5c b8be 16eb 1f3e c666 37be 1c96 f93d
000003b0: 39b6 b4bc 2406 43be 479a debc ba61 923e
000003c0: ff28 3dbd 7812 a5be 3174 6fbe 2f81 8dbd
000003d0: 5bc9 b83d a21a f2bd 0033 7f3d c2ad 26be
000003e0: e7fe e0be 6463 9abe 2f09 4fbd 2d4c 21be
000003f0: 81e7 cebe 3fa4 913d 1fc4 0fbe 0e84 3e3e

fc2.bias f4 [300]
-0.050329182 0.10421393 -0.13889219 -0.2087313 -0.067539245 -0.031231048 0.043718442 0.023383148
-0.001996635 -0.19790852 0.059961453 0.08598098 0.16688122 -0.13250221 -0.059833575 0.0299165
-0.030783454 -0.17254576 -0.036316875 -0.01628286 -0.24576224 0.19756718 -0.061951984 0.032849446
0.011238243 -0.009704776 0.056050863 -0.0033243827 -0.11188268 -0.13902046 -0.12557197 -0.20116949
-0.05414008 -0.022753058 -0.10650262 0.11828403 -0.040428016 -0.018180726 -0.03865903 -0.5252869
-0.014250978 -0.20661221 -0.057262048 -0.15082331 -0.06932101 -0.16900693 0.120959826 -0.094925456
-0.2704085 0.081983 0.09408268 0.031075137 -0.238274 -0.093884945 0.03291573 0.033457004
-0.10317439 -0.279129 -0.21482529 -0.21115187 -0.12625568 -0.20640713 -0.07666272 -0.057781685
-0.046831906 0.15308766 -0.01675664 -0.15096225 0.10533456 0.011940009 0.03880322 0.18140951
0.047032844 -0.057940327 0.040533125 -0.014128496 0.15642986 0.059080258 -0.019551866 -0.2557899
0.010257719 0.1459832 -0.1368857 -0.22903311 0.021315137 -0.20097484 -0.08502462 0.12541541
-0.051392063 -0.008754173 0.0150024695 -0.051307768 -0.06294476 0.15736298 0.12268348 -0.10525024
0.1105876 -0.03002411 -0.12572083 -0.056258697 0.024301717 0.05224864 0.10011807 -0.06542331
-0.03972924 -0.08420085 -0.0499823 -0.0060415347 -0.0875767 0.017751442 -0.028407682 0.13852268
-0.06088003 0.025847066 -0.17996627 -0.06912401 -0.10703872 0.140884 0.046485282 0.009653895
0.2683474 -0.025912445 -0.20075853 -0.11992906 -0.02563939 -0.23139119 -0.04396947 -0.027301142
-0.217578 -0.16291094 -0.025096085 -0.26729387 0.06983604 -0.30862427 -0.017065033 -0.14997257
0.099510655 0.071917094 0.025764838 0.18241005 0.18393351 -0.2299521 0.025669737 0.044108097
0.048883837 0.04925556 -0.024015006 -0.040860355 -0.021880252 -0.054521948 -0.4295614 0.14817129
-0.11184548 0.0513808 -0.08566093 -0.10968519 -0.06749325 -0.22907272 -0.13329226 0.06066066
0.037286423 -0.245369 0.07002279 0.035138533 -0.019496465 0.09040457 0.020107292 -0.2357574
-0.1346248 -0.12142859 -0.06006743 -0.08847289 0.042543318 -0.4151683 -0.072007276 0.085252404
0.00424935 0.071072005 -0.07279757 -0.30026263 -0.058255088 -0.08500762 -0.23784986 0.0893231
-0.13370134 -0.22636358 -0.0237783 -0.13710605 -0.06321026 -0.20565464 -0.26101172 0.03816713
0.18286608 0.037010636 0.15719163 0.0031354716 -0.020287452 -0.0925866 -0.13528334 -0.21419336
-0.037104446 0.040967662 0.014854116 -0.03706866 0.093725026 0.009813911 -0.1187346 0.12857169
-0.12296825 -0.011648349 -0.15174642 0.035801273 -0.05570857 0.14044465 -0.2322968 -0.12771867
-0.0701796 -0.07905743 -0.062281203 -0.31871715 0.078121 -0.17013839 0.028484771 -0.021372916
0.12965254 -0.0030087843 0.13800296 -0.061234728 0.12030968 -0.1502748 -0.057725254 0.12885204
-0.22728321 -0.17356347 0.11047907 0.062112212 0.040719498 0.04222951 -0.020302495 -0.17617996
0.10869014 -0.28542846 -0.14141163 -0.014873009 -0.029924484 -0.10364074 -0.11311282 -0.0772992
-0.028422385 -0.12582058 0.21821882 0.126406 -0.011463701 0.022062194 -0.33826497 -0.012255599
00000000: f925 4ebd 1d6e d53d c139 0ebe a8bd 55be
00000010: 0452 8abd 41d8 ffbc 1c12 333d 048e bf3c
00000020: fad9 02bb 88a8 4abe 249a 753d cc16 b03d
00000030: e9e2 2a3e a9ae 07be 0d14 75bd 7313 f53c
00000040: 952d fcbc d6af 30be 01c1 14bd a263 85bc
00000050: 19a9 7bbe 0d4f 4a3e 5dc1 7dbd 248d 063d
00000060: 9c20 383c c800 1fbc 9795 653d e3dd 59bb
00000070: bf22 e5bd 615b 0ebe f095 00be 60ff 4dbe
00000080: fdc1 5dbd 9f64 babc 0c1e dabd e63e f23d
00000090: d997 25bd bfef 94bc ee58 1ebd 3479 06bf
000000a0: ef7c 69bc 2792 53be 9c8b 6abd 6d71 1abe
000000b0: 2cf8 8dbd 2710 2dbe c9b9 f73d 4768 c2bd
000000c0: fc72 8abe b4e6 a73d 6cae c03d 4991 fe3c
000000d0: 19fe 73be c046 c0bd a5d2 063d 360a 093d
000000e0: 184d d3bd ffe9 8ebe 29fb 5bbe 3238 58be
000000f0: 2b49 01be 645c 53be 5801 9dbd 7dac 6cbd
00000100: d0d2 3fbd 03c3 1c3e 3945 89bc d995 1abe
00000110: a5b9 d73d 07a0 433c 20f0 1e3d 6ac3 393e
00000120: 83a5 403d d652 6dbd 1006 263d 357b 67bc
00000130: 262f 203e 24fe 713d 3c2b a0bc e5f6 82be
00000140: fe0f 283c 9f7c 153e c42b 0cbe a887 6abe
00000150: 159d ae3c 59cc 4dbe 6321 aebd e66c 003e
00000160: 7c80 52bd aa6d 0fbc ebcc 753c 1828 52bd
00000170: 2fe9 80bd c323 213e 7a41 fb3d 708d d7bd
00000180: c07b e23d 1ff5 f5bc f6bc 00be 856f 66bd
00000190: 6514 c73c ac02 563d b40a cd3d a8fc 85bd
000001a0: 21bb 22bd 7f71 acbd 3dba 4cbd 11f8 c5bb
000001b0: 6a5b b3bd 796b 913c 3ab7 e8bc e4d8 0d3e
000001c0: 575d 79bd 3abd d33c 1449 38be e490 8dbd
000001d0: 1e37 dbbd e543 103e 5a67 3e3d 5f2b 1e3c
000001e0: d564 893e 5646 d4bc a593 4dbe 5e9d f5bd
000001f0: b309 d2bc d0f1 6cbe 5519 34bd a5a6 dfbc
00000200: c4cc 5ebe 20d2 26be 4e96 cdbc beda 88be
00000210: 3306 8f3d 0004 9ebe f8cb 8bbc 6992 19be
00000220: 3ecc cb3d 4549 933d c810 d33c b3c9 3a3e
00000230: 1159 3c3e 9078 6bbe 5749 d23c b1aa 343d
00000240: 6b3a 483d 33c0 493d 1ebb c4bc 305d 27bd
00000250: 373e b3bc 6852 5fbd 79ef dbbe 37ba 173e
00000260: 3e0f e5bd ac74 523d ff6e afbd a1a2 e0bd
00000270: e739 8abd 0a92 6abe c47d 08be 5077 783d
00000280: a6b9 183d 0342 7bbe 1c68 8f3d 6ced 0f3d
00000290: 0db7 9fbc 0826 b93d 0cb8 a43c 636a 71be
000002a0: 15db 09be 8daf f8bd 4409 76bd 4631 b5bd
000002b0: e741 2e3d f090 d4be 8d78 93bd d098 ae3d
000002c0: 223e 8b3b 338e 913d e416 95bd 06bc 99be
000002d0: e39c 6ebd 7a18 aebd ea8e 73be 08ef b63d
000002e0: 01e9 08be dbcb 67be b6ca c2bc 8765 0cbe
000002f0: 6174 81bd 2197 52be 54a3 85be 2355 1c3d
00000300: 3f41 3b3e 7798 173d d8f6 203e 7c7c 4d3b
00000310: df31 a6bc 0b9e bdbd b787 0abe 8155 5bbe
00000320: d5fa 17bd b5cd 273d ae5e 733c 4fd5 17bd
00000330: e8f2 bf3d 87ca 203c 202b f3bd 4ca8 033e
00000340: c7d6 fbbd b8d8 3ebc 6a63 1bbe 5ba4 123d
00000350: ab2e 64bd b9d0 0f3e 36df 6dbe afc8 02be
00000360: 52ba 8fbd dde8 a1bd 931a 7fbd e52e a3be
00000370: e7fd 9f3d c238 2ebe e558 e93c 4116 afbc
00000380: a3c3 043e 062f 45bb a650 0d3e 44d1 7abd
00000390: ec64 f63d a3e1 19be 5171 6cbd caf1 033e
000003a0: eebc 68be 9fba 31be da42 e23d 6069 7e3d
000003b0: 7dc9 263d daf8 2c3d 6b51 a6bc 8568 34be
000003c0: f098 de3d ae23 92be 36ce 10be ecad 73bc
000003d0: 3124 f5bc 9941 d4bd b2a7 e7bd 0b4f 9ebd
000003e0: 10d6 e8bc 1cd7 00be c174 5f3e 9370 013e
000003f0: 3fd2 3bbc c6bb b43c 1131 adbe b5cb 48bc
